app/native/cpp/tflite-model/tflite_learn_840911_39.tflite (tflite, 229668 bytes, 8 tensors)

sequential/conv1d/BiasAdd/ReadVariableOp f4 [32]
000000 61 69 93 bd 9b b8 48 3d 42 e5 d7 3c 21 d2 04 3e
       -0.07197834 0.04900418 0.026354436 0.12970783
000010 71 7f c8 bd 61 29 12 3d 44 af 2f 3d 3b 36 8e 3d
       -0.097899325 0.035683993 0.042891756 0.069439374
000020 92 ee 9c 3d 6d 34 01 bc 53 04 ce bd 07 04 74 bd
       0.07662691 -0.007886034 -0.100594185 -0.059574153
000030 b0 d3 bd 3d f3 57 83 3d 45 ad 4a 3d c6 d9 9f 3d
       0.09268892 0.06413259 0.04948165 0.07805209
000040 9a 8c 8f bd 8f 21 25 3d 90 d7 4c 3d 97 03 78 bd
       -0.070092395 0.040315207 0.050010264 -0.0605503
000050 6e 0e 14 3d b9 c8 2d bc 30 be b5 3d 5b 02 79 3c
       0.036146574 -0.010606938 0.08874166 0.0151983155
000060 4e 8d e4 3d 0a 38 b7 3d 72 1b 03 bc 46 96 03 be
       0.11159764 0.089462355 -0.008002149 -0.12850294
000070 24 14 dd 3d 1a ea 8b 3d 0e 48 e4 3c 78 39 fd 3d
       0.10794857 0.06831761 0.02786639 0.12364477

sequential/conv1d_1/BiasAdd/ReadVariableOp f4 [64]
000000 97 95 e0 3c 41 5b 50 3d 27 98 e0 bd b7 d6 12 3c
       0.02741508 0.050868277 -0.10966521 0.008962325
000010 00 b8 62 3d 2c dc 71 3d 52 2c 35 bd ec 76 39 3d
       0.055351257 0.059047863 -0.04423172 0.04527943
000020 0a f2 a6 bd 1e 26 c1 bd 3c 1b 33 3c 91 c8 0f 3c
       -0.08151634 -0.094310984 0.010931786 0.008775846
000030 54 0e 8e 3b d3 37 81 bc 7f 05 02 3c 78 cd c1 3c
       0.004335204 -0.01577369 0.007935881 0.023657545
000040 63 43 ca bc a2 94 18 bd e8 c4 cc bd 95 22 24 3d
       -0.024690336 -0.037251122 -0.099984944 0.040072042
000050 8b 50 53 bb 2d bf c9 bc 6d d1 aa 3c 0f c3 d7 3c
       -0.0032244052 -0.024627293 0.020851815 0.026338128
000060 f0 48 36 bb a5 1e 6c 3d 8b 56 8a bd a9 b3 72 3c
       -0.002781447 0.057646412 -0.06754788 0.014813342
000070 2c 6e b9 3d 42 fa fa bd ad 5e 2c bb f6 88 30 3d
       0.09054217 -0.12254764 -0.0026301548 0.043099366
000080 88 6b 4d bc 10 a1 a7 3c fa 7b f9 bc b5 56 22 bd
       -0.0125378445 0.020462543 -0.030454624 -0.03963347
000090 9d 4c 8d bd 79 62 a6 3d 97 e3 69 3d 11 db 85 bd
       -0.068993784 0.08124251 0.057101812 -0.06535924
0000a0 d4 47 f6 3d a5 b5 a2 bd 39 fe 4b 3d 56 3f 27 3d
       0.12025419 -0.07944802 0.049802992 0.040831886
0000b0 55 51 df bb 66 df 00 bb cd e8 4c bd 84 d1 63 bd
       -0.0068151155 -0.0019664406 -0.050026704 -0.05561973
0000c0 9a 52 60 bd 98 4e 05 bd a4 24 a5 3d 0e be 02 3d
       -0.054766275 -0.032545656 0.08063629 0.03191953
0000d0 4c b8 96 3d a7 14 63 bd 83 17 96 bd de 45 b7 bb
       0.073593706 -0.055439617 -0.07328703 -0.0055930456
0000e0 94 e9 68 bc 21 91 ce bb 41 94 c6 bd 47 26 72 bd
       -0.014215846 -0.006303922 -0.09696246 -0.059118535
0000f0 e2 b1 39 bd 52 90 95 bc fe 0f c8 3c fd 76 b6 bc
       -0.045335658 -0.018257294 0.024421688 -0.022273535

sequential/conv1d/Conv1D f4 [32, 1, 7, 40]
000000 2b b6 a2 3c 5b 2d aa bd d9 d7 f6 bc 48 99 c8 3d
       0.019862255 -0.08309432 -0.030132221 0.09794861
000010 ba 8a 1f bb 90 ea 19 3d 8e 46 5c 3d 64 ff 14 3d
       -0.0024344162 0.03757721 0.053778224 0.036376372
000020 df 95 5b bb 85 b9 34 bc ef df 02 3d b9 9f 00 bd
       -0.0033506078 -0.011030559 0.03195184 -0.031402323
000030 c3 68 8c 3c da 63 c2 bd 4e 55 bd 3d 61 77 be bd
       0.017139798 -0.094917014 0.09244786 -0.093001135
000040 ae 16 c7 bc 18 9c 16 3e 84 ed db ba 8d 90 db 3d
       -0.024302807 0.14707983 -0.0016779159 0.1072093
000050 83 c1 e5 3d 74 2a 14 3e 7e 8e e5 bc e8 8b 35 3d
       0.1121855 0.1446932 -0.028022047 0.044322878
000060 aa f6 1e bd b0 81 a5 3d 24 1b f3 3c 29 40 ec bc
       -0.038809456 0.080813766 0.029676028 -0.028839188
000070 6d 0a 3d bd f6 00 32 bd 59 68 9b bd 7e d8 c9 3d
       -0.04615252 -0.043457948 -0.07588262 0.09855746
000080 24 0c da 3c b1 ab 04 bd ff 01 44 3d 7d e8 57 3d
       0.026617117 -0.0323903 0.047853466 0.052711952
000090 2e a3 e5 bc f0 5b ea 3a 6d 49 d2 bd 94 6e 0b 3d
       -0.028031912 0.0017880183 -0.10267911 0.034041002
0000a0 c7 a1 8b bd ed 7a cb bc 49 1b d3 3d 71 0e 59 bc
       -0.06817966 -0.024838889 0.103079386 -0.013248072
0000b0 c9 8e 67 bd d0 2c ce bd 30 77 10 3d d3 94 16 3d
       -0.056532655 -0.10067141 0.035269916 0.036763024
0000c0 a1 60 8b bd 05 b8 9f bd ba 46 83 3c a4 96 06 3d
       -0.0680554 -0.07798771 0.016024936 0.032858506
0000d0 93 3e 60 bd 32 47 2c bd 92 46 23 bd 9d a5 07 be
       -0.054747175 -0.042060085 -0.039862223 -0.1324677
0000e0 dc 5e c8 3d a4 b5 88 3d fe 4a 27 3e 49 da ac 3d
       0.09783718 0.0667527 0.16337201 0.08440072
0000f0 6d 50 f3 3d 39 f0 df 3c 14 fb 0b bd 42 0f 05 bd
       0.118805744 0.027336227 -0.034174994 -0.032485254
000100 c6 1b 53 bd db 7f ff bc c9 0e e6 bd 02 a1 4f bd
       -0.05154016 -0.031188896 -0.11233289 -0.05069066
000110 91 aa 8e bd d3 89 c1 bd 99 ab 2f bd c0 1c 9d bd
       -0.06966127 -0.09450116 -0.042888258 -0.07671499
000120 98 ac d6 bd 51 48 8e bd ed d6 89 3d 6d 68 3b 3a
       -0.104821384 -0.06947387 0.06730447 0.00071490445
000130 7d 6e bb bd 2b c2 bf bd 2d a2 48 3d e0 d7 79 bd
       -0.09151933 -0.093632065 0.048982788 -0.06099689
000140 80 0e ef 3d eb 9c fb 3d 2e cd 3a 3c 8b b5 bf ba
       0.116726875 0.12285789 0.011401458 -0.0014626248
000150 30 31 79 bd 48 93 75 3b f8 70 bf bb 22 d3 cc 3d
       -0.060837924 0.003747182 -0.0058423243 0.10001208
000160 4b c4 8f 3d 03 ea 61 3d 38 30 52 bd 72 60 27 bd
       0.07019862 0.05515481 -0.051315516 -0.04086346
000170 5c 12 73 3d 26 75 26 bd 14 34 74 3d 61 d4 46 bd
       0.05934368 -0.040639065 0.059619978 -0.048542384
000180 7d d3 ec 3c 75 63 1c 3e e7 86 c3 3d 7e 71 c5 3d
       0.02890944 0.15272315 0.09547215 0.096407875
000190 16 f3 88 3d 43 3a 6d bb 1c c0 9b 3c e4 44 9d 3d
       0.0668699 -0.0036198057 0.019012503 0.076791555
0001a0 c7 f7 12 bd 06 d7 f9 3d 43 2b 2f bd 52 24 c9 bd
       -0.03588083 0.121992156 -0.042765867 -0.09821381
0001b0 27 38 95 3c 8c e6 8a 3d 7e 95 0c 3d 2a b4 81 3d
       0.018215252 0.067822546 0.034322254 0.06333192
0001c0 a9 5c 05 3c 78 c2 a1 3d d8 8d bd bd b0 f7 0c bd
       0.008139768 0.0789842 -0.0925557 -0.0344159
0001d0 6e 4a f5 bd f0 aa e4 bd 85 fb 09 be b6 18 45 bb
       -0.11977087 -0.11165416 -0.13474853 -0.0030074543
0001e0 0f dc 32 3c 79 ec 74 3d 1c 6a 96 3d d3 8a 04 3d
       0.010916724 0.05979583 0.073444575 0.032358956
0001f0 b0 54 b9 bd 3d 1e 8b bc 0b 3a 90 3d 8f 63 88 bd
       -0.09049356 -0.016982192 0.07042321 -0.06659614
000200 5e 94 87 3d 86 04 4e bc a9 ed a6 3c 05 fc e2 bc
       0.06620096 -0.012574321 0.020376997 -0.027708063
000210 5b 36 9c 3d ab 50 69 3d 81 ad a2 3d cb 0d a1 bd
       0.07627555 0.056961697 0.079432495 -0.07863959
000220 f1 d2 6f bd 0b 9e 02 3e cd ec af bc 47 bc 24 3d
       -0.05855078 0.12755601 -0.02147522 0.040218618
000230 03 96 da 3d 7b 7f dd 3d d7 87 e2 3d 9e fe a8 bd
       0.10673144 0.108153306 0.11061066 -0.082516894
000240 95 1f 51 3d 95 64 0d bd 5e 0a 85 3d 42 24 c9 bd
       0.05105551 -0.03451975 0.06496118 -0.09821369
000250 17 9b ad 3d 15 12 7a 3b 30 d0 c1 bd 8a 95 b3 3d
       0.08476847 0.003815775 -0.09463537 0.08768757
000260 7f 32 10 be f9 85 de bd d8 60 ff 3b 73 51 a1 bd
       -0.14081763 -0.10865397 0.007793527 -0.07876863
000270 f8 a0 00 bc d9 08 32 be d8 d7 16 be 1c 07 d0 bd
       -0.007850878 -0.17386188 -0.14730775 -0.10157606
000280 c0 5d 19 3b be ac e9 3d 72 ea 1d 3b 8b d0 86 3d
       0.0023401827 0.11409901 0.002409604 0.06582745
000290 06 3b 79 bc 10 4f 63 bd 53 64 01 be a1 cc 99 3d
       -0.015211826 -0.05549532 -0.12635927 0.07509733
0002a0 47 72 0c be a3 a0 84 3d 2d 37 d5 bc 46 c6 ef bd
       -0.13715468 0.064759515 -0.026027286 -0.117077395
0002b0 f2 63 19 3d af 7f d0 bd 27 80 ed bd 19 ae b3 3d
       0.03744883 -0.10180604 -0.11596709 0.08773441
0002c0 68 74 eb bc 36 22 8d 3d 4b 22 e1 3d 2d 22 12 3d
       -0.02874203 0.06891291 0.10992869 0.035677124
0002d0 74 83 eb bc 0f 46 c8 bd 75 9d 87 3d 12 e7 a0 bc
       -0.028749205 -0.097789876 0.066218294 -0.019641433
0002e0 ba f5 46 3d e9 4c db 3c 1f 30 b9 bc 16 c0 99 bd
       0.048574187 0.026770072 -0.022605954 -0.075073406
0002f0 1b 1a 82 3d eb 73 9b bc 8b a0 07 3c 32 6f 5e bc
       0.063526355 -0.018976172 0.0082780225 -0.013576316
000300 3e 7d 33 3d 91 d0 b9 bd fc a3 b0 bd f6 f3 d3 bd
       0.043820612 -0.09072984 -0.086250275 -0.10349266
000310 5c cd 89 bc 76 40 90 3c 21 06 ba bd 7d 4c ce bd
       -0.016821556 0.017608862 -0.090832 -0.10073183
000320 d2 c6 78 3d 2b c9 42 bd 17 e7 38 3d 35 2a 68 3d
       0.060736485 -0.04755513 0.04514226 0.056680877
000330 77 a5 c9 bd 6d 9d 8b bc 25 24 62 bc 5c 2f ba 3d
       -0.09846013 -0.01704284 -0.013802563 0.09091064
000340 c6 38 56 bd 8f c4 02 be 49 3d 35 bd 77 bf 9b 3d
       -0.052300237 -0.12770294 -0.0442479 0.076048784
000350 c5 92 d1 3d df 60 87 3d 41 47 9c bd 40 f2 88 bd
       0.10233072 0.066102736 -0.07630778 -0.066868305
000360 5d a1 8c bc 54 a3 a6 bb 63 8c fc 3d 8f af 6c 3d
       -0.017166788 -0.005085388 0.12331464 0.057784613
000370 00 72 c0 bd c6 6b 39 3c 94 41 b6 bc ca 44 a8 3d
       -0.09396744 0.011317199 -0.022248067 0.082162455
000380 66 8b 84 bd e7 89 bc bc ab 81 ff bd d4 1c 9a bd
       -0.06471901 -0.023014976 -0.12475904 -0.0752503
000390 da bf 93 bd 61 70 42 3d 7f 0f ca bd 51 30 84 bd
       -0.07214327 0.047470454 -0.09866237 -0.06454528
0003a0 a3 a5 b9 bd f4 c3 9e 3d 15 72 cc bd 56 27 35 be
       -0.09064796 0.07752219 -0.09982697 -0.17690787
0003b0 1d b0 a6 bd 02 c9 17 be 4c a5 46 ba 67 6c 06 3d
       -0.0813906 -0.14822772 -0.0007577732 0.032818224
0003c0 94 9f 01 3e b9 70 ce 3c 97 ad 7a 3d 4d 03 42 3b
       0.1265853 0.025200235 0.061200704 0.0029604018
0003d0 0d 55 d3 3d 3b bd 95 bd e3 68 e7 3d de a7 55 3d
       0.103189565 -0.073114835 0.112993024 0.052162044
0003e0 06 55 c6 3c b6 7e 7f 3c 36 7b e9 bc b3 82 31 3d
       0.024210464 0.015594175 -0.028501134 0.043337535
0003f0 62 aa fa 3d e0 34 3c 3d 25 9f d3 3d de f6 ad bc
       0.12239529 0.045948863 0.10333089 -0.02123588

sequential/conv1d_1/Conv1D f4 [64, 1, 3, 32]
000000 7d ef c4 bd d3 1b 1b 3d f2 03 c2 3d 98 da 3d 3e
       -0.09615991 0.037868332 0.09473409 0.18540418
000010 9e fd 94 bd af 3b 1d bd db 0a 32 3e 9a 52 1c 3e
       -0.07274936 -0.038386997 0.17386954 0.15265885
000020 7d 49 c3 3c 66 d5 c1 bd 10 e5 8f bd f0 8f 3a 3e
       0.023838753 -0.09464531 -0.07026112 0.1821897
000030 78 12 16 3d be cb 93 3d 57 17 00 3e 50 4d 10 be
       0.036638707 0.07216595 0.12508903 -0.14091992
000040 7e 17 a3 3d db f2 4d 3d 0b fe b7 3d 79 93 23 be
       0.07963465 0.050280433 0.08984002 -0.15974225
000050 af 7f 12 3e 37 14 ef 3d 9a 5e 88 3d 06 e6 10 3e
       0.1430652 0.116737776 0.06658669 0.14150247
000060 06 06 06 bd bc 83 63 3e dc 1b f7 3d 19 e5 83 bd
       -0.03272059 0.22218221 0.12065861 -0.06440181
000070 8f 4c 47 3e 97 e9 28 bc e2 e0 f1 3d e5 77 45 3e
       0.19462799 -0.010309598 0.11810471 0.19284017
000080 d0 4f 98 be 13 f4 ab 3c b8 c5 8d 3d c7 f4 f2 3e
       -0.29748392 0.020990407 0.069224775 0.47452375
000090 d8 ed 1d be fb fe 9e 3d 0c 19 05 3e d6 0c f2 bd
       -0.15422761 0.077634774 0.12997836 -0.118188545
0000a0 c1 d5 35 3c ee ba 4c bd 70 78 4c bd 3f f4 d4 3d
       0.011098326 -0.049982958 -0.049919546 0.10398149
0000b0 1a 78 80 3e a1 66 c8 3d eb 11 a6 bd 7d b8 5a bd
       0.2509163 0.097852 -0.08108886 -0.053398598
0000c0 cf 52 5a bc 33 06 8f bc d8 b3 c4 3c 3f bb 24 be
       -0.013325407 -0.01745901 0.024011537 -0.16087054
0000d0 f9 3b 1a 3e fc 42 71 3c c1 5a 53 3c 0b cb 66 3d
       0.1506194 0.014725443 0.012900055 0.05634598
0000e0 a8 77 fd 3d a9 b5 54 3d 07 7f 9a 3d ab a6 89 bd
       0.12376338 0.051931057 0.0754376 -0.067212425
0000f0 d3 21 48 3e e3 2e 93 bd 30 9e 3e 3d 26 2d 36 bd
       0.19544153 -0.07186677 0.046537578 -0.04447665
000100 1d 94 73 be 33 8a e5 bc 58 46 ae 3d 71 c5 28 3e
       -0.2378697 -0.02802 0.08509511 0.16481568
000110 66 fc 1d be ff d2 ec bc 74 25 11 3e 7a 00 d5 bc
       -0.15428314 -0.028909205 0.14174443 -0.026001204
000120 df fe cd 3d 4b 52 09 3e e5 3f a3 3d e9 b9 e7 bc
       0.100583784 0.13410299 0.07971171 -0.028286891
000130 fe 7a 05 3e b2 f4 78 3e 4c 8b 1e bd 2a ec 8b bd
       0.13035199 0.24312094 -0.038707063 -0.06832154
000140 40 2c 17 bd 07 0b 4c 3e 76 fb f8 bd 1a c7 bc bd
       -0.036907434 0.19926082 -0.12157337 -0.09217663
000150 ff e7 3f bc b7 94 0d 3d 68 a6 19 3d fa 33 01 3e
       -0.011713027 0.034565654 0.037512213 0.12617484
000160 89 84 84 3d b6 77 70 3e 02 20 0c be ea ce ae bb
       0.064705916 0.23483166 -0.13684085 -0.0053347247
000170 a0 9f b9 3d de de f7 3d 8a ac e2 bc 8d a7 68 bd
       0.09063649 0.121030554 -0.027670164 -0.056800414
000180 c0 54 45 be 4d 28 88 bd 4b 20 be bd df a8 83 3e
       -0.19270611 -0.06648312 -0.09283503 0.25714776
000190 eb 4e ca 3d a1 ae 32 bd 65 4b 88 bb 4f 75 3b be
       0.09878334 -0.04362357 -0.0041593784 -0.18306468
0001a0 f8 5c 87 3d 36 db 16 bd 23 66 b0 3d a5 a8 ab bd
       0.06609529 -0.03683015 0.08613231 -0.08381776
0001b0 76 d0 10 bd 54 48 66 3e 0e fa 4d bc 1a 14 ac 3d
       -0.035355054 0.22488528 -0.012571825 0.084022716
0001c0 94 9a 2f be 68 de fb 3c 71 ab 53 bd c1 42 6b be
       -0.1714881 0.0307457 -0.05167717 -0.22974683
0001d0 09 91 a7 bd 10 f2 85 bd a8 5d 02 3e d5 ca 8b 3d
       -0.0818196 -0.065403104 0.1273104 0.068257965
0001e0 4a 08 c6 3d f2 b1 61 3e 9e 9a ab bd d4 8f 12 be
       0.0966955 0.22040537 -0.083791 -0.14312679
0001f0 56 36 90 3d fc b7 69 3d c5 5a 34 3d d3 61 1a 3e
       0.07041614 0.057060227 0.044031877 0.1507638
000200 b2 28 97 3d 22 a9 e2 3d 8f 61 04 3e 86 bc e8 3c
       0.07380809 0.11067416 0.1292784 0.028410207
000210 ae eb 0c be cf ea 5b bc 78 56 94 bd 4f 5e a0 bd
       -0.1376178 -0.013422682 -0.07243055 -0.07830488
000220 e4 e3 2e 3d df 91 b8 bc 4d 81 f6 bc 01 37 46 bd
       0.042697802 -0.022530494 -0.030090952 -0.0483923
000230 a9 68 1f bc 38 2e c9 3d 2c 5d f6 3d e8 dd 28 3e
       -0.009729543 0.09823269 0.1202949 0.164909
000240 b6 b2 24 3d 77 3d 42 bd 8e 23 a2 3d ce 11 2b be
       0.040209495 -0.0474219 0.07916938 -0.1670601
000250 d8 2a d7 bd 74 c8 e6 3d 63 c7 6d bd f8 52 6b bd
       -0.10506219 0.11268702 -0.058051478 -0.057452172
000260 a5 45 a7 bc b7 d1 5b 3e 40 90 1f 3d 4d 53 f3 3d
       -0.020418951 0.21466719 0.038955927 0.11881123
000270 bf 84 ce 3d a5 f8 82 bd c1 f7 26 bc 3a 36 99 3c
       0.10083913 -0.063950814 -0.010190905 0.018702615
000280 75 be fc bd 54 7c 51 3c 95 80 19 be 1c bc 99 3e
       -0.12341014 0.01278599 -0.14990456 0.3002633
000290 4d 84 8f bd 53 4f 4c bd 80 86 6b 3c 70 1f 24 be
       -0.07007656 -0.049880337 0.014375329 -0.16027617
0002a0 01 88 30 3d 42 de 9a ba cc 76 2b bd b3 15 08 3e
       0.043098453 -0.0011815506 -0.04186134 0.13289528
0002b0 df f8 41 3e 21 29 ce ba fb c2 32 3e 06 4d 32 bd
       0.18942593 -0.001572881 0.17457192 -0.043530487
0002c0 eb 64 95 bd 6b d2 01 3e 4f 2e 90 3d bc e2 1b 3d
       -0.07294639 0.12677924 0.07040083 0.038058028
0002d0 26 ce 02 3e 34 63 05 be f9 a0 46 ba b7 49 bc 3d
       0.12773952 -0.13026124 -0.00075770874 0.091937475
0002e0 8d bb 83 bd ce 29 83 3d cb 2c 03 3e df 97 06 bd
       -0.06432257 0.06404458 0.12810056 -0.03285968
0002f0 be ef f9 bd 85 11 35 bd 0b 21 09 3e ea 4b d1 3d
       -0.1220393 -0.04420616 0.13391511 0.102195576
000300 2a 3a 92 be d8 fc 62 bd e6 e1 f6 3d b9 b8 81 3e
       -0.2856 -0.05541691 0.120548055 0.25336245
000310 2e 04 5e be 2a 4e 4b bd 46 4a 1e 3e 41 8c c9 3c
       -0.21681282 -0.04963509 0.1545802 0.024603011
000320 29 f7 94 bd c5 d8 ce 3d 79 2c 96 3c d2 dc 4f 3e
       -0.072737046 0.10099939 0.018331753 0.2029908
000330 07 ec 21 3e 1e 5f c3 bd 8b 4c 0e be 79 e6 02 3e
       0.15812694 -0.095396265 -0.13896386 0.12783231
000340 d1 1b af 3c 00 17 08 be 61 0f db 3d 21 3a 25 be
       0.021375569 -0.13290024 0.10696293 -0.16135456
000350 a8 77 f8 3d 90 cd cf 3a 8c ea f5 bd 43 bc 4c 3e
       0.121321976 0.0015854109 -0.12007627 0.19993691
000360 52 63 91 be d3 96 10 3d b6 f2 c6 3c 3c 1c 47 3d
       -0.28396088 0.035300087 0.024285655 0.04861091
000370 ca bd 33 be 07 2a 05 be a8 6e 78 bd 19 2d 24 be
       -0.17552868 -0.13004313 -0.060652405 -0.16032828
000380 01 cc a5 be e9 c8 cc bd ca a2 e1 bd 21 e9 97 bd
       -0.32382205 -0.09999258 -0.11017378 -0.07417513
000390 04 7e 65 be dc 77 02 3e 29 c3 ab 3d 43 55 22 bd
       -0.22411352 0.12741035 0.08386833 -0.039632093
0003a0 78 f5 4a 3d d7 2a 09 3e 91 41 ca bc 2e 3a 1a 3e
       0.049550503 0.13395248 -0.024689468 0.15061256
0003b0 4d 60 a3 3b 40 25 9c bd 42 ab f8 ba 13 57 0f 3e
       0.004985845 -0.076242924 -0.0018971937 0.1399806
0003c0 7e e9 24 be 03 b8 fd 3d 5f bc c0 bd 45 de 3e 3d
       -0.16104695 0.12388613 -0.09410929 0.04659869
0003d0 bf 31 25 bd 56 f3 e6 bc 45 ea 13 be f3 3f 3d 3e
       -0.040330645 -0.028192203 -0.14444835 0.18481426
0003e0 50 ee 54 bd 89 17 2e be 08 9c 71 3d 3d bd 9e 3d
       -0.051985085 -0.17001165 0.058986694 0.07750938
0003f0 f3 21 6e be f4 a0 2e 3d d8 66 78 3d 2b 6c fb 3d
       -0.23255138 0.042633966 0.060644954 0.12276491

sequential/y_pred/BiasAdd/ReadVariableOp f4 [2]
000000 bc dc 23 bc c0 dc 23 3c
       -0.010001358 0.010001361

sequential/dense/BiasAdd/ReadVariableOp f4 [64]
000000 57 65 19 bc 96 7c 46 3c 95 27 56 3c fa 46 37 3d
       -0.00936254 0.012114665 0.0130709605 0.044745423
000010 ed 02 94 3c 3c 59 bf bc 2b 94 a0 bc c3 ea af 3d
       0.018067801 -0.02335798 -0.019601902 0.08589699
000020 ab 93 70 bc ad da 42 3d 46 71 b8 bc 50 bc 9e 3c
       -0.014683644 0.047571827 -0.02251495 0.019376904
000030 cc 18 41 3b bf 31 ff 3c 94 3e 76 3c 45 5f 55 3d
       0.0029464243 0.03115165 0.015029568 0.05209281
000040 34 1b 28 3d 5c 15 95 3d 0e 51 90 3c 92 c3 4c 3d
       0.041041568 0.072794646 0.017616775 0.049991198
000050 23 fd 35 3c d4 0e 89 3c af a4 36 bc 32 52 c3 3a
       0.011107716 0.016730703 -0.011147662 0.0014901815
000060 d4 f2 73 3d b5 2a 49 bd 54 b9 69 3d 52 0b ae 3d
       0.05955775 -0.049112994 0.05706151 0.08498253
000070 70 fd 86 3d 2d fa 56 3d 35 7f 24 3d c1 84 a1 bc
       0.06591308 0.05248468 0.040160377 -0.019716622
000080 f4 46 b7 bb 4e bb 46 3c 31 ad 85 3c 1e cb 6a 3d
       -0.005593175 0.012129618 0.016317936 0.057322614
000090 67 18 64 3d 88 93 0a 3c 1d 09 3d bc c8 ee 64 3d
       0.055687334 0.008458026 -0.011537817 0.055891782
0000a0 e4 d1 bb 3d 13 bc c8 3d 65 a1 8e bc 27 5b 10 3a
       0.09170893 0.09801497 -0.017410943 0.0005506747
0000b0 de f6 84 3c 59 a4 92 3d ba b3 84 3b 84 71 6c 3d
       0.016230997 0.07160253 0.0040497454 0.057725444
0000c0 24 68 c1 3c 63 e7 d6 bc c6 5d 86 bc 04 a2 7b 3d
       0.023609228 -0.02623338 -0.016402137 0.061433807
0000d0 9c fe cb 3d bf f8 68 3d db 9c 88 3b 6d 34 78 bc
       0.09960672 0.056877848 0.0041690893 -0.015149218
0000e0 8c bd 08 3d 79 1a 93 3c df d5 94 3d c4 a5 7d 3a
       0.03338389 0.01795696 0.07267355 0.0009675885
0000f0 ac c9 cd 3d b8 9b ad 3b 8b ee 96 3c bb 96 8d 3d
       0.100482315 0.005298104 0.018424293 0.06913515

sequential/dense/MatMul f4 [64, 640]
000000 a3 94 7f bc b7 69 02 bd 97 91 cb bc 7b dd cd 3c
       -0.015599403 -0.0318391 -0.024849696 0.025130024
000010 1a 9c 13 3d 8a 1b b9 bd 8b 41 69 3d f9 ce 49 3b
       0.036037542 -0.09038456 0.056947272 0.0030793531
000020 ea 8a b5 bc b7 b3 7a 3d 41 71 91 bd 00 3f 38 3d
       -0.022160966 0.061206546 -0.071016796 0.044981956
000030 59 fa 11 3a 44 b3 52 bd b8 7f 0d 3d 9f 92 21 3d
       0.0005568616 -0.051440492 0.03454563 0.03944647
000040 3d 41 76 bc 2d 7c 25 3d da ac 97 bd b2 56 b0 bd
       -0.015030202 0.040401626 -0.07406016 -0.08610286
000050 ac 58 1f 3d f7 13 5c bd 32 3e 9e 3d a5 0a e1 bc
       0.038902923 -0.053729977 0.077267066 -0.027470896
000060 95 17 c7 bd 03 2c b2 bd 74 b3 87 ba a7 6b 9d ba
       -0.09721295 -0.08699801 -0.0010353164 -0.0012010232
000070 5a aa 50 3d 14 17 9b 3d c6 88 1c bd af dc 6e bd
       0.05094371 0.07572761 -0.038216375 -0.05831593
000080 ce cd 0e bc 95 ce 23 3d 80 17 0b 3d 03 0f bb bd
       -0.00871606 0.039991934 0.03395796 -0.09133723
000090 5e f2 86 bd 9b 5a 8d 3d 1a c2 4d bc a7 ba d1 bb
       -0.065891966 0.06902047 -0.012558484 -0.0064004245
0000a0 7f cc eb bd 1d 32 ad 3c bb b2 99 bd ff 18 a8 bc
       -0.11513614 0.02114206 -0.07504793 -0.020519732
0000b0 b7 b9 48 bd 4d 32 13 bd 7e 40 d9 bb 6f ba 9e 3d
       -0.049005236 -0.035936642 -0.0066300025 0.07750403
0000c0 13 e6 4c 3d d6 6c 84 bc 19 2d 91 3b 34 36 cc 3d
       0.050024103 -0.016165178 0.004430425 0.09971276
0000d0 48 10 05 3d 99 90 79 bc 65 4d 08 3d ea 46 f8 bb
       0.03248623 -0.015232229 0.033276934 -0.007576813
0000e0 a6 22 ea bd a2 30 bb 3c c8 53 b9 bd e6 c1 be bd
       -0.1143239 0.022850338 -0.09049183 -0.09314327
0000f0 7c 92 c4 3d 51 f2 36 3c 8a 72 03 be 4e 41 9f bd
       0.09598252 0.011166171 -0.12836662 -0.07776128
000100 bf 85 12 be 9b 08 0a 3d d5 f7 af bd 33 c5 5d 3d
       -0.14308833 0.033699613 -0.08592192 0.054143142
000110 be 8f 71 bd 97 a6 40 bd 12 64 7d 3d 5b 12 30 bd
       -0.058974974 -0.047033872 0.061863013 -0.042986255
000120 8a c0 a3 3b 10 d7 e3 bc 64 da 82 3d 0d 8f 67 3c
       0.0049973177 -0.02781251 0.06389311 0.014133227
000130 3a ea 0f 3c 7e 57 ad 3d 52 76 05 bd 7d fd ac bd
       0.008783871 0.084639534 -0.032583542 -0.084467866
000140 d3 7e 8e 3d b1 5f b1 3d b7 fb c3 bd 48 b1 a8 3d
       0.069577836 0.0866083 -0.09569495 0.08236939
000150 20 56 f7 bc e3 1d 9b bd 39 f1 0d bc a2 66 b3 3c
       -0.030192435 -0.0757406 -0.008663469 0.021899525
000160 aa 9a bc bd fe db a3 bd e9 1d af bd 4e 90 8d bd
       -0.09209187 -0.080009446 -0.08550627 -0.069122896
000170 42 9a b5 bd 1c c8 02 be 8d dd 31 3d ed 78 92 3c
       -0.08867313 -0.12771648 0.043424178 0.017879928
000180 af fb e8 39 5b 2c 48 3d 03 ac 4b bc 1c 54 b6 3c
       0.00044438007 0.048870426 -0.0124311475 0.022256903
000190 e9 17 3b bd 4c 2c c9 3c 56 18 2d bd 2f 8c a4 bb
       -0.0456771 0.024557255 -0.042259537 -0.005021594
0001a0 bc 1a aa bd 4b 38 a7 bc be 29 b8 bd 06 54 e0 bd
       -0.083058804 -0.020412585 -0.08992337 -0.10953526
0001b0 8e 32 c0 3c 03 51 08 3d 83 4e 58 3d 60 5b 86 bd
       0.023461606 0.033280384 0.05280925 -0.06560397
0001c0 6f 47 73 bc ae d7 70 3d 13 87 2b bc 85 d1 82 3d
       -0.014848574 0.05879944 -0.010469216 0.06387619
0001d0 da 02 bc 3d 4c f9 26 3c 73 4e 31 bc 2f f2 c1 3c
       0.091802314 0.010191273 -0.010821926 0.023675052
0001e0 b3 e9 be bd 8e be ff bc b2 a4 8f 3d 52 3f 74 bd
       -0.09321918 -0.031218793 0.07013835 -0.0596307
0001f0 78 d6 6e 3d de bf b4 3c 13 bd 5e bd 88 3c 42 bc
       0.058310002 0.022064146 -0.054379534 -0.011855252
000200 a5 23 30 bd 85 f8 18 bd 36 8d c2 3c fa a7 8d 3c
       -0.043002743 -0.03734638 0.023748975 0.017292012
000210 75 db c3 bc eb 56 a1 3d 7a f1 3e 3d ec 96 be bd
       -0.023908356 0.078779064 0.04661701 -0.0930613
000220 c7 a0 f9 bd ce 39 b7 3c 4a bf 39 3b 11 80 e3 bc
       -0.12188869 0.02236643 0.0028342777 -0.027771028
000230 a1 f9 72 bd 35 db 94 bc 82 c0 e4 3c ce 29 f4 bd
       -0.059320096 -0.018170932 0.027923826 -0.11922036
000240 02 32 44 bc 84 a0 1a bd d9 16 c4 3c a3 60 43 3d
       -0.011974813 -0.037750736 0.023936676 0.04769958
000250 80 12 be bd 55 c3 a1 bd 24 4e bc 3d d3 1b 45 bd
       -0.09280872 -0.07898585 0.09194592 -0.04812224
000260 dc b2 dd 3b 39 5c e8 bd 96 bf 83 bd 60 d2 b7 3c
       0.0067657065 -0.11345715 -0.064330265 0.022439182
000270 78 8b d2 bd b0 38 76 3d 32 9c a2 bd b0 42 83 bd
       -0.10280508 0.060112655 -0.07939948 -0.06409204
000280 50 18 f8 bc 8b 28 28 bc f2 5a 3f bc 72 ad e4 bd
       -0.03028503 -0.010263572 -0.011679398 -0.111658946
000290 4f 58 87 3d 32 94 43 3d 93 78 7d 3d 96 a7 26 3d
       0.066086404 0.047748752 0.061882567 0.040687166
0002a0 89 af a7 bd 7f 07 c2 3d b7 a6 4e bd 7d dc 1f be
       -0.081877775 0.09474086 -0.05045196 -0.15611453
0002b0 1c 66 3d 3a 0f 6a 91 3d f9 1c bc bd 4e 6d 17 3d
       0.00072249933 0.07100307 -0.091852136 0.036969475
0002c0 9b 69 a8 bc c0 c1 a5 bd 9f 57 d7 bc 61 2e 8c bd
       -0.02055817 -0.080935955 -0.026286898 -0.068447836
0002d0 14 1a 9b bd c5 a5 f4 bc e8 0d aa bd 19 0d bc bc
       -0.075733334 -0.029864201 -0.08303434 -0.022955464
0002e0 dc f1 1d bd 2e e1 b7 bd f3 df f9 3b f1 0a ba bb
       -0.038560733 -0.089784965 0.007625574 -0.005677574
0002f0 20 d9 11 bc a8 9e 91 3d 19 a2 61 bd 49 17 1e 3c
       -0.008901864 0.071103394 -0.05508623 0.009649106
000300 62 14 1c bd ee 19 8d bd 34 96 71 3d 12 29 5a bd
       -0.038105376 -0.06889711 0.058981135 -0.053261824
000310 0c 26 8f bd 6f 8e 28 bd 23 ad 89 bd 96 67 d6 bd
       -0.06989679 -0.04115146 -0.06722476 -0.10468976
000320 91 75 88 bc b3 61 53 bd 0f ed 85 bd 2d 63 d0 bd
       -0.016657623 -0.051606845 -0.06539356 -0.10175166
000330 4a 2c 55 3d 66 60 5c 3d 4f 20 1c ba 08 de b2 bd
       0.05204419 0.05380287 -0.0005955742 -0.08733755
000340 f1 2a db bd e6 2d d7 bd c9 f3 77 bd 16 12 7c 3d
       -0.1070155 -0.10506801 -0.060535226 0.061540686
000350 9c d1 bc bd f8 39 7e 3d 17 11 16 3d a5 93 ce bd
       -0.09219667 0.062067002 0.036637392 -0.10086755
000360 b1 3d 1f ba 27 b3 1d 3d e5 76 8d bd bb 46 e2 bb
       -0.00060745614 0.03850093 -0.06907443 -0.0069054044
000370 fa fb cf bc 09 cf 61 bd 7e db b0 3b 99 c5 bf bb
       -0.025388706 -0.055129085 0.0053972593 -0.005852413
000380 c9 d8 98 bd e5 fd 96 3b a2 1d a3 3b 0c dd aa bd
       -0.074632235 0.0046079033 0.0049778977 -0.083429426
000390 fd ce 94 bd 49 6b a9 bc 0e aa 74 3d 72 11 6d bd
       -0.072660424 -0.02068104 0.05973249 -0.057877965
0003a0 ae 64 d8 bc 4f d3 2e bd 43 47 e3 bd 95 73 5c bd
       -0.026415195 -0.04268199 -0.110975765 -0.053821165
0003b0 7a c6 a5 bd f9 3e 7b bd 50 ce 30 3d 79 51 87 bd
       -0.08094497 -0.061339352 0.043165505 -0.066073366
0003c0 d6 7a 25 3d e4 c2 8d 3d dd a8 31 3d 66 56 06 3d
       0.04040035 0.06921938 0.04337393 0.03279724
0003d0 78 37 c2 3d e0 04 b1 bb b3 73 06 bb 57 b3 92 bd
       0.09483236 -0.0054021925 -0.002051574 -0.071631126
0003e0 b9 ec 61 bd 99 29 00 3d 1c 52 b2 bd f5 46 73 3d
       -0.055157397 0.03128967 -0.08707067 0.05939384
0003f0 80 49 60 3c 96 4d 3c 3d ae d9 98 bd e2 70 bf bd
       0.013689399 0.04597243 -0.07463394 -0.093477026

sequential/y_pred/MatMul f4 [2, 64]
000000 cd 2c 11 be b8 26 9e bc 81 27 bc bd 86 9a de 3b
       -0.14177246 -0.019305572 -0.09187222 0.006793323
000010 a2 0f e7 be 53 95 5d 3e 2f 12 55 3e 00 90 c3 be
       -0.45129114 0.21638994 0.20807718 -0.381958
000020 d6 7b 73 3e 0d b7 d8 be 09 76 27 3e 55 fd 5c be
       0.23777708 -0.42327157 0.1635362 -0.21581014
000030 e5 3f 85 3e 5d 08 0e be 20 64 87 3e f0 3d a2 be
       0.2602531 -0.13870378 0.26443577 -0.3168788
000040 8b 68 87 be e3 72 f7 bd b5 c1 9d 3e 17 28 a3 be
       -0.26446947 -0.1208246 0.3081185 -0.31866524
000050 d5 d1 c7 3e da de d6 3d 29 e9 6f 3e 70 3f 88 3e
       0.39027277 0.10491724 0.23428787 0.266109
000060 0a d7 c1 be cf 8d b6 3e 44 37 8c be 15 74 97 3e
       -0.37859374 0.35655066 -0.27385914 0.2958075
000070 59 d1 d8 be 09 69 05 bf 6f a0 cc be d6 6b 40 3e
       -0.4234722 -0.52113396 -0.3996615 0.18791136
000080 3c 44 0f be c7 62 98 3e 09 d6 6c 3e 80 2b aa be
       -0.13990873 0.2976286 0.23128523 -0.33236313
000090 d4 8b ab be f2 f4 4a 3d a1 74 20 3e fc f8 1d be
       -0.33505118 0.049550004 0.1566949 -0.15427011
0000a0 18 33 be be a3 94 a0 be 5f 6c 38 3e 82 6b 1a 3e
       -0.37148356 -0.313634 0.1801009 0.15080073
0000b0 e1 99 be be 17 bb bf be 76 6f 8b 3e 71 81 93 be
       -0.37226775 -0.37447426 0.27233475 -0.28809693
0000c0 a4 eb 52 3e 8e d8 4d 3e 72 fc 8b 3e a5 e6 84 be
       0.20597702 0.2010214 0.27341038 -0.25957218
0000d0 78 98 22 bd 88 80 a8 be bd d3 be 3e b2 94 0f be
       -0.039696187 -0.32910562 0.37270918 -0.14021567
0000e0 a6 78 f5 3d e6 35 6f bd 73 db e0 be 83 5f bb 3d
       0.119859025 -0.05840101 -0.43917426 0.09149077
0000f0 c1 70 ee be e1 ed 96 3e 37 d3 6c 3d 80 2f af be
       -0.465704 0.29478362 0.057818618 -0.34215927
000100 7a 4a 1e be df f6 d0 be d1 9d be be 7b 36 bc be
       -0.15458098 -0.40813348 -0.3722978 -0.36760315
000110 6d 12 88 3c 01 c2 51 3e 9e c5 af bd 71 12 2e 3d
       0.016610349 0.20484163 -0.08582614 0.042498056
000120 e9 09 cb bd 0e 50 10 bc db af 89 bb aa 20 97 3e
       -0.099139996 -0.008808149 -0.004201872 0.29517108
000130 81 35 90 be 8d 29 ab 3e d3 e7 83 be 9e 18 1f 3e
       -0.2816582 0.33430138 -0.25762805 0.15536734
000140 ba 87 39 3e a7 37 29 3e a9 e9 df bd cd c4 c7 3e
       0.18118182 0.16525136 -0.10933239 0.39017335
000150 61 dd 4f bd fc 1a d9 bd f7 30 86 3d 69 e5 45 bd
       -0.050748233 -0.1060085 0.06552308 -0.048314486
000160 3e 38 ce 3e 9a a9 d6 bd a9 e7 a1 3e b3 9a 33 be
       0.40277284 -0.10481568 0.31622055 -0.17539482
000170 62 83 a3 3d 4a 51 5b 3e a0 c8 ac 3d ae 20 2e 3e
       0.07984044 0.21417728 0.08436704 0.17004654
000180 7b fc 9c be da b0 10 bd f1 31 c1 bd 94 4b ae 3e
       -0.30661377 -0.03532491 -0.09433354 0.34042037
000190 99 86 97 3e f7 a6 a1 be 1b 2c 13 be 15 a2 52 3e
       0.29594877 -0.31572697 -0.14372294 0.20569642
0001a0 e0 4a 08 3e 70 12 cf 3e 4e 35 75 bd db 3d 3b be
       0.13309813 0.40443754 -0.05986529 -0.18285315
0001b0 e3 45 97 3e f8 c7 48 3c 4e b2 99 3c e1 60 93 3e
       0.29545507 0.0122547075 0.01876178 0.2878485
0001c0 a1 8e bf be 5f ac 52 be c7 17 79 3e 80 4f 3b 3e
       -0.37413505 -0.20573567 0.24325477 0.18292046
0001d0 e6 dc d0 3e 93 e3 a5 3e b5 6a c5 be 67 56 89 be
       0.40793532 0.32400188 -0.38557974 -0.26823732
0001e0 f8 88 dd 3e 86 51 a7 be e1 18 70 3e 6c 4e 1a be
       0.4326856 -0.32679385 0.2344699 -0.15068978
0001f0 b2 c5 ab 3e 3a 1a 22 be fc 9b bf be 9d 2c 80 3e
       0.33549267 -0.15830317 -0.37423694 0.25034037
