modelo2/tflite-model/tflite_learn_839504_39.tflite (tflite, 17668 bytes, 6 tensors)

sequential/conv1d/BiasAdd/ReadVariableOp f4 [8]
0.016732166 -0.042577907 -0.033890024 0.044409975 -0.010177803 0.19239251 -0.035075888 -0.02437496
00000000: e511 893c 2c66 2ebd 44d0 0abd 3ce7 353d
00000010: cdc0 26bc 8b02 453e bcab 0fbd ffad c7bc

sequential/conv1d_1/BiasAdd/ReadVariableOp f4 [16]
-0.09726841 0.0013163128 -0.0069510457 -0.0067076706 0.22868772 -0.053262543 0.050120607 -0.004198134
0.10643021 0.13790911 -0.04760649 0.06708903 -0.034508646 -0.042399406 -0.0687219 -0.041856743
00000000: a934 c7bd 2188 ac3a 99c5 e3bb 05cc dbbb
00000010: 1d2d 6a3e d329 5abd 444b 4d3d 8090 89bb
00000020: 15f8 d93d 0c38 0d3e 06ff 42bd f965 893d
00000030: f058 0dbd 00ab 2dbd 11be 8cbd fa71 2bbd

sequential/conv1d/Conv1D f4 [8, 1, 7, 40]
-0.0005528331 0.072415635 0.0017792583 0.026749223 -0.12664817 -0.029176898 0.07929389 -0.05269265
-0.16565989 -0.12477531 0.008607339 -0.11354855 0.10741113 -0.09915492 -0.11442052 0.037733704
-0.015532941 -0.04460588 -0.031852245 -0.12885804 0.0436728 -0.010784872 0.048228845 0.07754254
-0.082674615 -0.15031889 -0.2819488 -0.38573766 -0.051732857 -0.20736913 -0.20100777 -0.06121036
-0.050238296 -0.03603042 0.040334996 -0.12945142 0.08675707 0.019379064 -0.05767076 0.18179193
0.032751173 0.05443555 -0.10470873 0.08657795 -0.04484155 -0.063751556 0.1306767 0.057617575
0.01604522 0.010901272 0.1803632 0.12127976 -0.11134848 0.12117182 0.074413255 0.10951465
0.11812569 0.050103426 -0.021345861 0.08265133 -0.120793805 0.08165561 0.05502455 0.0056632757
-0.15761654 -0.1796861 0.0767501 -0.19684227 0.11396836 -0.13119134 -0.15846312 0.40189496
0.18721376 0.18420534 -0.02058948 -0.08238644 0.21606416 0.19047405 0.14675155 0.15642937
0.07907581 -0.01943522 0.1029859 -0.09519625 0.11888905 -0.12393733 -0.108754374 -0.03978794
0.10272212 0.24971823 0.004552445 -0.11556086 0.03917782 -0.121878505 -0.08729018 -0.0124021545
-0.08762159 -0.05926665 0.07598144 -0.0825496 0.05888672 -0.06670921 -0.0005393326 0.039271653
-0.048908155 -0.16783705 -0.2571872 -0.0833693 -0.10780377 -0.31480327 -0.36404195 -0.21806987
0.062379133 -0.10978047 -0.05648112 -0.12903625 -0.060358703 0.08895503 0.23598288 0.19548248
-0.0859138 -0.06902123 -0.010048941 0.08870669 0.13180919 -0.023470864 -0.122127235 0.010176063
0.35773924 0.1451213 0.24635085 0.13137831 -0.024462253 -0.034167804 0.024480566 -0.11087947
0.06762159 -0.018582769 0.12644626 -0.1301299 0.12434958 0.017662272 -0.019601047 0.10133366
0.053313088 0.1428121 0.027113551 0.08486197 0.21816874 0.039414726 0.031162174 0.52168584
0.25024694 0.29006985 0.17180727 0.12539507 0.28826374 0.09920203 0.4523252 0.3611177
-0.02043435 0.007461369 -0.09349085 0.07389858 0.032647386 0.002036363 0.113878965 0.002194047
0.18413366 0.10381117 0.22880001 0.081866086 -0.0028509349 -0.03194069 0.09058942 0.031278893
-0.05586359 -0.10938087 0.034907013 -0.062555686 -0.0811837 0.021826625 -0.06857637 0.045408726
-0.0654142 -0.17863582 -0.115875244 -0.056285862 0.009495498 -0.23058935 -0.009126004 -0.15978074
0.0323489 0.13934992 0.109611385 -0.109105594 0.051755887 0.04627092 0.07174275 -0.030186746
0.036384046 -0.06517462 0.028407514 -0.12692736 0.05700083 -0.022406422 -0.10304382 -0.1331648
0.20172846 0.38006917 0.27359137 0.11136001 -0.00872235 -0.07592808 0.10054058 -0.13320082
-0.0060305893 0.006221175 -0.094886824 -0.076502025 -0.099571235 0.075869575 0.124721274 -0.047470093
0.18451554 0.1491588 0.17514491 0.07525655 0.20575324 0.29361662 0.107155114 0.28589252
0.49505717 0.42059383 0.2543806 0.2158048 0.39994037 0.3196058 0.4178952 0.28877148
0.12498741 0.1205277 0.011847526 -0.029235996 0.012960523 -0.09951 0.05877173 0.11646862
-0.051017378 0.022047428 0.036829513 -0.09176792 -0.019467779 -0.11638976 0.07752757 0.025932372
00000000: 00ec 10ba a64e 943d 0036 e93a 3021 db3c
00000010: 0fb0 01be 6404 efbc d664 a23d 40d4 57bd
00000020: bfa2 29be 338a ffbd cc05 0d3c 248c e8bd
00000030: 5efa db3d bc11 cbbd 4e55 eabd a88e 1a3d
00000040: e07d 7ebc a8b4 36bd 8077 02bd 5df3 03be
00000050: 40e2 323d 08b3 30bc 9c8b 453d a0ce 9e3d
00000060: 4f51 a9bd 32ed 19be 985b 90be 687f c5be
00000070: d5e5 53bd 9358 54be fbd4 4dbe b7b7 7abd
00000080: acc6 4dbd a294 13bd 4f36 253d ea8e 04be
00000090: b1ad b13d d8c0 9e3c 2d38 6cbd aa27 3a3e
000000a0: 1826 063d d0f7 5e3d 8871 d6bd c84f b13d
000000b0: c6ab 37bd 2d90 82bd 1dd0 053e 6800 6c3d
000000c0: 4471 833c 409b 323c 21b1 383e 8661 f83d
000000d0: ac0a e4bd ee28 f83d fa65 983d 3849 e03d
000000e0: e2eb f13d 4039 4d3d 84dd aebc 1a45 a93d
000000f0: be62 f7bd 0e3b a73d 6c61 613d 0093 b93b
00000100: 3b66 21be a2ff 37be 282f 9d3d 0591 49be
00000110: 3e68 e93d 0657 06be 2844 22be 2dc5 cd3e
00000120: f7b4 3f3e 53a0 3c3e 45ab a8bc 39ba a8bd
00000130: ec3f 5d3e a10b 433e 0a46 163e 052f 203e
00000140: 80f2 a13d 9c36 9fbc 46ea d23d 40f6 c2bd
00000150: 1a7c f33d dbd2 fdbd 9dba debd aef8 22bd
00000160: fa5f d23d 23b6 7f3e ad2c 953b 2cab ecbd
00000170: ec78 203d 709b f9bd 32c5 b2bd 6832 4bbc
00000180: f372 b3bd 96c1 72bd 289c 9b3d c40f a9bd
00000190: 3433 713d d79e 88bd 0062 0dba 50db 203d
000001a0: eb53 48bd 7add 2bbe 0aae 83be 86bd aabd
000001b0: 39c8 dcbd e52d a1be b563 babe b54d 5fbe
000001c0: 4381 7f3d 95d4 e0bd bf58 67bd 1422 04be
000001d0: b03a 77bd 0e2e b63d 7fa5 713e 8f2c 483e
000001e0: 93f3 afbd 015b 8dbd 50a4 24bc daab b53d
000001f0: fdf8 063e f845 c0bc d81d fabd 80b9 263c
00000200: 9929 b73e ae9a 143e 6643 7c3e 0988 063e
00000210: 1065 c8bc 8af3 0bbd 788b c83c c714 e3bd
00000220: 307d 8a3d e43a 98bc 217b 013e c640 05be
00000230: feaa fe3d 78b0 903c 6092 a0bc 0688 cf3d
00000240: d35e 5a3d 563d 123e 3d1d de3c 1dcc ad3d
00000250: a067 5f3e 5671 213d d147 ff3c 348d 053f
00000260: 5e20 803e 0984 943e 3fee 2f3e 9167 003e
00000270: 4e97 933e 6f2a cb3d 2b97 e73e 6be4 b83e
00000280: f065 a7bc 807e f43b 2178 bfbd 2458 973d
00000290: 44b9 053d 8074 053b 6039 e93d 00ca 0f3b
000002a0: 898d 3c3e f39a d43d 8d4a 6a3e 68a9 a73d
000002b0: c0d6 3abb 3ed4 02bd f286 b93d 4c1e 003d
000002c0: 38d1 64bd 1403 e0bd a8fa 0e3d 321d 80bd
000002d0: a443 a6bd c0cd b23c c571 8cbd 80fe 393d
000002e0: e1f7 85bd 4fec 36be 0050 edbd 018c 66bd
000002f0: 0193 1b3c 9d1f 6cbe 3c85 15bc 909d 23be
00000300: 4880 043d bfb1 0e3e ef7b e03d c172 dfbd
00000310: fbfd 533d 9486 3d3d dded 923d 324a f7bc
00000320: 7007 153d 457a 85bd e0b6 e83c 3ff9 01be
00000330: b479 693d ac8d b7bc a308 d3bd 5a5c 08be
00000340: e891 4e3e 6d98 c23e 2b14 8c3e b810 e43d
00000350: 30e8 0ebc 2e80 9bbd 38e8 cd3d cc65 08be
00000360: 409c c5bb 00db cb3b 0654 c2bd 18ad 9cbd
00000370: 01ec cbbd 8261 9b3d de6d ff3d 0070 42bd
00000380: a4f1 3c3e 16bd 183e 3059 333e 1b20 9a3d
00000390: fab0 523e eb54 963e 2474 db3d 8160 923e
000003a0: 2278 fd3e 1358 d73e 2d3e 823e effb 5c3e
000003b0: fcc4 cc3e 5fa3 a33e 5cf6 d53e dbd9 933e
000003c0: 66f9 ff3d 3ad7 f63d 201c 423c 5480 efbc
000003d0: 6058 543c e6cb cbbd a0ba 703d 1a87 ee3d
000003e0: 99f7 50bd cf9c b43c 8bda 163d d2f0 bbbd
000003f0: e47a 9fbc c15d eebd c6c6 9e3d 2070 d43c

sequential/conv1d_1/Conv1D f4 [16, 1, 3, 8]
0.17609574 0.108757995 0.29457262 0.41892767 -0.12973939 0.20651352 -0.017706782 0.09240878
0.08761284 0.03939762 -0.026936661 0.054568276 -0.25549147 0.062140975 0.19787402 -0.24583
0.11126279 0.10520963 0.03837497 0.22149345 -0.2939367 -0.3230451 0.21326894 0.034950912
-0.09522883 0.21561778 0.03558336 0.32161996 -0.04938297 0.048983913 -0.046768405 0.11935159
-0.1765997 -0.024707405 -0.09588362 0.1762865 0.15243027 0.2478278 0.13389134 0.23239587
0.3413688 0.019542532 0.05507878 -0.26330632 -0.20258914 -0.21675727 -0.035903987 0.010334481
-0.17796387 0.10525546 -0.13390173 0.21413624 -0.0184033 0.02470356 0.0046162694 0.10992386
0.5986267 0.0028607864 0.16845717 0.40858823 0.090699546 -0.12850311 0.029848441 0.2490874
-0.13681138 0.11299277 0.09700817 -0.013268742 -0.15112767 -0.10860191 0.23566836 -0.036804333
0.003717749 -0.18648365 0.091729455 -0.23197758 0.24992475 -0.17109892 -0.27089825 0.1179436
-0.087220974 -0.2022056 -0.03098311 0.13427539 0.065353476 -0.27305633 -0.18594939 0.04836929
-0.3144715 0.055981785 -0.12482663 -0.24862352 0.17832306 -0.11738155 0.12919378 0.094882056
-0.07451612 -0.15973547 -0.15115821 -0.16073385 -0.21808979 -0.026389379 0.08793703 0.13602427
-0.13034429 -0.075439036 -0.15415458 -0.21016034 -0.038361505 0.3476258 0.049642246 -0.01991602
0.16043873 0.2308127 0.22350429 -0.12246457 -0.18384515 0.5303981 -0.11137467 0.094063774
-0.27376205 0.13613133 0.17973135 0.13753894 -0.106666915 -0.38955072 -0.10079938 0.24630874
-0.19742545 0.122947045 -0.050761312 -0.2497584 0.18938363 0.08945981 -0.2101358 -0.11195254
-0.24736467 0.25398594 0.10852134 0.009354196 0.043126147 -0.08821888 -0.21960329 0.13924456
0.15650603 0.031843714 0.14116924 0.21420482 -0.21440451 -0.00069748505 0.07140853 0.08915822
0.18433751 -0.1574949 0.14556414 -0.32148284 -0.027774328 -0.02501744 0.027195947 0.19825505
-0.038073394 -0.23014575 -0.13654941 0.35037985 -0.029958202 -0.08018922 -0.18047969 -0.17187712
-0.033484496 0.2713083 0.035105806 -0.25266019 -0.18543443 0.55579436 0.26756924 0.084194936
0.3175349 0.27081087 0.24886337 0.45487937 0.24587734 0.23388925 0.10332844 0.12456717
0.21610588 0.034111775 -0.17707324 0.12527813 0.22297686 0.11616266 0.29982114 0.04663311
0.28255624 -0.24569792 0.22208768 0.35679364 0.02383628 -0.17981555 0.24846475 0.18842159
-0.0760006 -0.12395444 -0.17487025 0.2773293 0.22782886 -0.3024513 -0.24831697 0.30626214
-0.10657172 -0.09589282 0.2432775 0.07776386 0.020534711 -0.19518837 -0.09883819 -0.012066707
0.04860435 -0.17331523 0.114598095 0.18905288 -0.058502533 0.25390154 0.17474993 0.20142533
-0.04132642 -0.07860113 -0.002823115 -0.18705127 0.06371581 0.110682204 -0.052964833 0.15280963
0.006066411 -0.14567553 -0.071737885 0.25809783 -0.022641871 0.12226095 -0.13151644 0.28603736
-0.23455621 -0.17536113 -0.14862663 -0.0075078374 0.031800844 -0.2689654 0.123593986 -0.08767256
-0.30402246 -0.2654831 -0.099075 -0.07092119 -0.14588971 -0.24778135 -0.16120635 0.04623127
00000000: 7152 343e 83bc de3d 39d2 963e b07d d63e
00000010: 67da 04be 4878 533e d00d 91bc d040 bd3d
00000020: 5c6e b33d 665f 213d 46aa dcbc fc82 5f3d
00000030: c7cf 82be 8987 7e3d 7d9f 4a3e dcba 7bbe
00000040: bfdd e33d 2678 d73d 132f 1d3d 2ecf 623e
00000050: df7e 96be 2b66 a5be 2c63 5a3e b028 0f3d
00000060: 5507 c3bd e8ca 5c3e dbbf 113d 5fab a43e
00000070: cc45 4abd 5ba3 483d 3a90 3fbd 9b6e f43d
00000080: 8dd6 34be 2f67 cabc a25e c4bd 7384 343e
00000090: ae16 1c3e 92c6 7d3e d01a 093e 2ff9 6d3e
000000a0: e4c7 ae3e a917 a03c 499a 613d 16d0 86be
000000b0: 8773 4fbe 9ef5 5dbe 0f10 13bd f451 293c
000000c0: 293c 36be 2d90 d73d 891d 09be 8846 5b3e
000000d0: 84c2 96bc 1f5f ca3c 1344 973b c31f e13d
000000e0: 993f 193f 087c 3b3b 0980 2c3e 7a32 d13e
000000f0: afc0 b93d 5296 03be b884 f43c c410 7f3e
00000100: 4818 0cbe c168 e73d 38ac c63d 2365 59bc
00000110: 36c1 1abe ae6a debd 0c53 713e 24c0 16bd
00000120: 7aa5 733b 92f5 3ebe a7dc bb3d 888b 6dbe
00000130: 46ec 7f3e 8e34 2fbe 2db3 8abe 6a8c f13d
00000140: e9a0 b2bd fc0e 4fbe 4bd0 fdbc 7d7f 093e
00000150: 0bd8 853d 0ace 8bbe 8469 3ebe e01e 463d
00000160: 6902 a1be 284d 653d 1ba5 ffbd 2a97 7ebe
00000170: 529a 363e bd65 f0bd 604b 043e 8651 c23d
00000180: e89b 98bd b291 23be 38c9 1abe 6a97 24be
00000190: ee52 5fbe 8a2e d8bc 5418 b43d f249 0b3e
000001a0: f978 05be c87f 9abd b3da 1dbe 4634 57be
000001b0: f420 1dbd 02fc b13e ab55 4b3d ec26 a3bc
000001c0: 0d4a 243e 2a5a 6c3e 4fde 643e b4ce fabd
000001d0: e741 3cbe 2bc8 073f 6718 e4bd 82a4 c03d
000001e0: 8a2a 8cbe 0366 0b3e 7f0b 383e 02d7 0c3e
000001f0: 2f74 dabd 3173 c7be e86f cebd 5c38 7c3e
00000200: e629 4abe a9cb fb3d 18eb 4fbd aac0 7fbe
00000210: c8ed 413e b436 b73d d72d 57be 6047 e5bd
00000220: 2a4d 7dbe 720a 823e 7040 de3d 5742 193c
00000230: 0ba5 303d 1aac b4bd afdf 60be 2096 0e3e
00000240: 1e43 203e 8e6e 023d ab8e 103e 8258 5b3e
00000250: db8c 5bbe 6ed7 36ba a33e 923d 9698 b63d
00000260: f9c2 3c3e 5846 21be c40e 153e 6699 a4be
00000270: fd86 e3bc 60f1 ccbc 09ca de3c 5f03 4b3e
00000280: d9f2 1bbd 54ab 6bbe 9cd3 0bbe fd64 b33e
00000290: e76a f5bc 3f3a a4bd abcf 38be 8e00 30be
000002a0: 0a27 09bd ece8 8a3e 1bcb 0f3d ad5c 81be
000002b0: 86e2 3dbe 8a48 0e3f d6fe 883e 656e ac3d
000002c0: ef93 a23e b9a7 8a3e 0ad6 7e3e f3e5 e83e
000002d0: 45c7 7b3e aa80 6f3e dc9d d33d 131d ff3d
000002e0: dc4a 5d3e cab8 0b3d b052 35be e948 003e
000002f0: 0c54 643e b0e6 ed3d 2882 993e 5c02 3f3d
00000300: 36ab 903e 3c98 7bbe f46a 633e a8ad b63e
00000310: 4d44 c33c 9121 38be 8b6d 7e3e 97f1 403e
00000320: 34a6 9bbd d3db fdbd 3011 33be 1bfe 8d3e
00000330: f84b 693e e6da 9abe ce46 7ebe 64ce 9c3e
00000340: 4642 dabd 7463 c4bd bd1d 793e a942 9f3d
00000350: 6938 a83c 76df 47be ad6b cabd 70b3 45bc
00000360: 5b15 473d 8c79 31be 68b2 ea3d 1497 413e
00000370: 5aa0 6fbd 62ff 813e a5f1 323e 7142 4e3e
00000380: e445 29bd a1f9 a0bd 0304 39bb 5e8a 3fbe
00000390: 6f7d 823d 5aad e23d a7f1 58bd 217a 1c3e
000003a0: bec8 c63b f72b 15be 50eb 92bd 6625 843e
000003b0: 727b b9bc f363 fa3d 3fac 06be 7d73 923e
000003c0: 812f 70be de91 33be 9431 18be 4e04 f6bb
000003d0: 9a41 023d d5b5 89be d81e fd3d ac8d b3bd
000003e0: d5a8 9bbe 67ed 87be d5e7 cabd 213f 91bd
000003f0: 1d64 15be 65ba 7dbe 4713 25be 005d 3d3d

sequential/y_pred/BiasAdd/ReadVariableOp f4 [2]
-0.25399643 0.2539965
00000000: d20b 82be d40b 823e

sequential/y_pred/MatMul f4 [2, 400]
0.124242485 0.09937759 0.10951451 0.121206045 0.04208499 -0.10466288 -0.07834818 0.034745406
-0.045823295 0.041510027 -0.10839955 0.029743597 -0.054168303 0.1378362 0.0010444502 0.030650465
0.06576718 0.0393997 0.037599634 -0.07911262 0.0063309204 0.016400088 0.069442205 0.027855167
0.018804628 -0.01139882 0.0694967 -0.09453228 0.024877494 0.062146157 -0.03221185 0.06588838
-0.031136641 0.10679143 0.045075025 -0.03810733 -0.08370137 -0.13668093 0.012627873 0.060288034
0.016575804 0.1083265 -0.1284739 0.1314092 0.017215895 0.029364964 -0.016619971 -0.105511285
0.09370202 0.08050542 0.13170017 -0.09909492 -0.015088634 -0.1232016 0.053734962 -0.029858412
0.020502536 -0.10190832 0.044079736 -0.025558166 -0.0026415703 0.073269516 -0.027668877 0.039244737
0.06527821 0.17214337 -0.02464508 0.09598778 -0.11126786 0.069525786 -0.022300644 0.040594887
0.064086 0.041054245 -0.01968407 -0.057233803 0.007735607 0.029106595 -0.017557576 0.030539453
0.0448981 0.07929887 0.03092395 -0.031227047 -0.15535383 0.00723308 0.09787099 0.08755152
-0.017560448 -0.049013223 -0.038478382 0.05719426 0.07588168 -0.022892438 -0.030728731 0.0072723557
0.09329405 0.18779247 0.12927186 -0.07098789 -0.044711467 -0.010006416 0.022911672 0.079396375
0.0470814 0.03247085 -0.0681348 0.109822124 -0.053728603 0.017612973 0.0032589776 -0.13039114
0.016632257 0.17485209 0.057089567 0.07999061 -0.074927755 0.06561156 0.029623142 -0.084069535
0.00016810128 -0.08895216 -0.01892395 0.22243422 0.0990513 0.0010182449 0.14828831 -0.123127356
0.036161046 0.103673376 0.027554067 0.04750665 -0.1930835 -0.026800504 0.041903354 -0.0135148335
0.02340225 -0.020173425 -0.0039173905 0.20796236 0.109922945 0.1380149 -0.014034188 -0.02493611
-0.00361414 -0.034584317 0.029336473 -0.00042609643 -0.30086777 0.084254004 -0.034523837 0.031418063
0.028589008 -0.12733011 -0.013797388 0.0813328 0.01259942 0.13639186 -0.030331634 -0.022243459
-0.1338053 -0.17563853 -0.023527713 -0.08880594 -0.2035267 -0.07203034 0.0699558 -0.065628484
0.00028773418 -0.08310393 -0.06967664 0.041855585 -0.015661554 -0.06610486 0.031922527 -0.083261035
0.060853127 -0.07260776 0.021345317 0.056812026 -0.08727732 0.06332426 -0.038635116 -0.06269598
-0.009130763 -0.12204709 -0.117199115 -0.0069235144 -0.024268756 0.033490017 -0.11925759 -0.1419422
-0.09393704 -0.19686173 -0.07410678 -0.12739258 -0.13986048 -0.03300876 -0.021144908 -0.099859186
-0.032747485 -0.16603835 0.052235175 -0.10126519 -0.029260736 -0.19072907 -0.14537986 0.0609459
-0.100643806 -0.08829956 -0.025913076 0.053840525 0.007953809 -0.04479903 -0.07184562 -0.023612041
-0.14988045 -0.08013186 -0.0020594995 -0.15157716 0.01265421 -0.04986312 -0.024547068 -0.002282551
-0.032709546 -0.030881543 0.021202676 -0.106238134 0.09610537 -0.09304637 0.0062292335 -0.002568779
-0.011969752 -0.024485977 0.08312858 -0.23408826 -0.039055068 -0.06769486 -0.1012524 0.07713445
0.022895828 -0.020633271 0.020199215 -0.14998008 0.11360648 0.013657496 -0.030275675 0.029233817
-0.07808282 0.051310573 -0.021145642 -0.14268242 0.0032380382 0.11926782 -0.045949813 -0.057718962
00000000: d872 fe3d 7a86 cb3d 2549 e03d e03a f83d
00000010: 4f61 2c3d 7e59 d6bd 0375 a0bd 3351 0e3d
00000020: 35b1 3bbd 6b06 2a3d 9500 debd d8a8 f33c
00000030: 95df 5dbd ef24 0d3e efe5 883a af16 fb3c
00000040: f1b0 863d 9461 213d 1302 1a3d cc05 a2bd
00000050: 9c73 cf3b 7a59 863c b737 8e3d 8530 e43c
00000060: 2a0c 9a3c 1ec2 3abc 4954 8e3d 249a c1bd
00000070: e3cb cb3c f88c 7e3d 93f0 03bd 7df0 863d
00000080: 4512 ffbc 77b5 da3d 97a0 383d 6f16 1cbd
00000090: a06b abbd 16f6 0bbe 23e5 4e3c 96f0 763d
000000a0: fbc9 873c 49da dd3d a98e 03be 2290 063e
000000b0: 5908 8d3c cb8e f03c 9b26 88bc 4d16 d8bd
000000c0: d8e6 bf3d 07e0 a43d 69dc 063e 47f2 cabd
000000d0: 5136 77bc 1f51 fcbd 3119 5c3d a199 f4bc
000000e0: eff4 a73c 4fb5 d0bd f48c 343d 5c5f d1bc
000000f0: 321e 2dbb 540e 963d d7a9 e2bc 17bf 203d
00000100: 95b0 853d 5a46 303e 7be4 c9bc 3e95 c43d
00000110: 67e0 e3bd 8963 8e3d d7af b6bc d346 263d
00000120: 853f 833d 7f28 283d 7d40 a1bc fe6d 6abd
00000130: fa7a fd3b f470 ee3c e8d4 8fbc e02d fa3c
00000140: 12e7 373d 7267 a23d 3954 fd3c ddcf ffbc
00000150: 1315 1fbe 7903 ed3b 9670 c83d 364e b33d
00000160: eeda 8fbc 17c2 48bd 829b 1dbd 8744 6a3d
00000170: db67 9b3d ec88 bbbc d2ba fbbc f14c ee3b
00000180: f310 bf3d ab4c 403e d85f 043e 1962 91bd
00000190: 5f23 37bd f3f1 23bc 42b1 bb3c 919a a23d
000001a0: 6dd8 403d 2700 053d 428a 8bbd 6cea e03d
000001b0: 8612 5cbd 1549 903c 9294 553b 4185 05be
000001c0: 5f40 883c 6d0c 333e c0d6 693d 1ed2 a33d
000001d0: b973 99bd 5b5f 863d 3bac f23c a62c acbd
000001e0: 5844 3039 8d2c b6bd 6606 9bbc ccc5 633e
000001f0: 68db ca3d a176 853a e4d8 173e 322a fcbd
00000200: 9b1d 143d b552 d43d 11b9 e13c 5596 423d
00000210: aeb7 45be bb8c dbbc daa2 2b3d 526d 5dbc
00000220: 13b6 bf3c bd42 a5bc 745d 80bb 16f4 543e
00000230: 481f e13d c753 0d3e a7ef 65bc d046 ccbc
00000240: 35db 6cbb 49a8 0dbd 0b53 f03c b265 dfb9
00000250: 570b 9abe 5d8d ac3d de68 0dbd 3ab0 003d
00000260: 7f33 ea3c d362 02be 710e 62bc d091 a63d
00000270: cc6d 4e3c 4faa 0b3e 0c7a f8bc ea37 b6bc
00000280: 4204 09be 96da 33be 31bd c0bc e3df b5bd
00000290: 4e69 50be a584 93bd fd44 8f3d 3a68 86bd
000002a0: 07db 9639 6532 aabd a0b2 8ebd c370 2b3d
000002b0: a94c 80bc fc61 87bd 32c1 023d c384 aabd
000002c0: 2141 793d 61b3 94bd 60dc ae3c bab3 683d
000002d0: 74be b2bd 26b0 813d db3f 1ebd c066 80bd
000002e0: 3299 15bc d3f3 f9bd 1706 f0bd a6de e2bb
000002f0: 45cf c6bc d42c 093d 533d f4bd 4c59 11be
00000300: 1062 c0bd 1f96 49be 4cc5 97bd 3373 02be
00000310: 9637 0fbe 3234 07bd 1638 adbc f982 ccbd
00000320: 3a22 06bd f505 2abe 8df4 553d 2064 cfbd
00000330: 36b4 efbc 7b4e 43be 75de 14be 68a2 793d
00000340: 571e cebd 66d6 b4bd a947 d4bc e287 5c3d
00000350: b150 023c 307f 37bd cc23 93bd 0a6e c1bc
00000360: 437a 19be 2c1c a4bd abf8 06bb 0b37 1bbe
00000370: 9b53 4f3c 453d 4cbd ef16 c9bc da96 15bb
00000380: 72fa 05bd 4afb fcbc 3cb1 ad3c 6193 d9bd
00000390: e4d2 c43d 188f bebd 991e cc3b f658 28bb
000003a0: c71c 44bc d196 c8bc 513f aa3d d5b4 6fbe
000003b0: 35f8 1fbd 9aa3 8abd 6b5d cfbd abf8 9d3d
000003c0: 0890 bb3c 1b07 a9bc d378 a53c 6194 19be
000003d0: 84aa e83d b1c3 5f3c b104 f8bc c27b ef3c
000003e0: e3e9 9fbd 092b 523d a039 adbc 571b 12be
000003f0: 4435 543b b042 f43d df35 3cbd b86a 6cbd
