modelo2/tflite-model/tflite_learn_840223_110.tflite (tflite, 19136 bytes, 6 tensors)

sequential/dense_1/BiasAdd/ReadVariableOp f4 [32]
000000 40 62 54 3d a7 38 15 3e b6 fb 8c bd f9 76 3f 3c
       0.05185151 0.14572392 -0.068839476 0.01168608
000010 0f 80 88 3d a8 5d da 3d 54 9d b1 bc 22 27 51 3e
       0.0666505 0.10662395 -0.021681465 0.20425084
000020 bf 27 27 bd 4b ed 20 3d 78 25 b3 3d 6a 4a 4e 3e
       -0.04080939 0.0392888 0.08747381 0.20145574
000030 bd ad 09 3e d1 02 da 3d 33 1b 3a 3e b7 42 67 3c
       0.13445182 0.106450684 0.18174438 0.014115027
000040 31 ed b5 bc 04 ce f4 bd 5b f5 ad bd e6 14 af bd
       -0.022207828 -0.11953357 -0.084940635 -0.08548908
000050 e1 13 8a 3e 42 17 e0 bd 0d c4 38 3e 1f 89 11 be
       0.2696829 -0.10941936 0.18043537 -0.14212464
000060 e7 bd 87 3e cc b0 c3 bc b4 d9 10 3c 28 9d 0f 3e
       0.26512071 -0.023888014 0.008840967 0.14024794
000070 72 08 0a 3e c8 1b cc 3d 2b 9d 3a 3e 90 98 16 3e
       0.13479784 0.09966236 0.18224017 0.14706635

sequential/dense/BiasAdd/ReadVariableOp f4 [32]
000000 09 5e be be b4 19 7c be 02 f9 92 be 6d 70 96 3d
       -0.37181118 -0.2461918 -0.28705603 0.07345662
000010 48 03 e6 3d 45 a8 fb 3d f2 0d 26 3e 03 58 bd 3c
       0.112310946 0.12287954 0.16216257 0.023113256
000020 c8 64 12 bb 37 31 9c bd 8b f8 97 3d df 89 3f be
       -0.0022337902 -0.076265745 0.07420453 -0.18704937
000030 a3 66 90 be e0 ed 07 be 94 8c 36 3e 20 33 99 3d
       -0.28203306 -0.13274336 0.17827064 0.074804544
000040 69 ba cd 3d 00 31 b0 3d ee 42 02 bc 79 a1 8b 3d
       0.100453205 0.08603096 -0.007950528 0.06817908
000050 5d 8a 20 bd 12 f5 6e be c1 d5 39 be a3 8c 50 3d
       -0.039194454 -0.23335674 -0.18147947 0.05091537
000060 63 e1 5c be 0f 99 94 bb 14 f4 3e 3e 37 bb 40 be
       -0.21570353 -0.0045348476 0.18647796 -0.18821417
000070 f6 45 87 be f7 fa 54 be 90 fc 0e be 51 8c 2a 3e
       -0.26420563 -0.2079886 -0.13963532 0.16655089

sequential/y_pred/BiasAdd/ReadVariableOp f4 [2]
000000 f4 4e 07 be f2 4e 07 3e
       -0.13213712 0.13213709

sequential/dense/MatMul f4 [32, 98]
000000 44 0b 06 bd d5 db 91 be e7 e9 42 be 5f fb 34 3e
       -0.032725587 -0.2848803 -0.19034539 0.17674015
000010 11 c0 25 bd a6 c6 ac 3d 05 88 d6 3d bb 5e 0c bc
       -0.040466372 0.08436327 0.104751624 -0.008567507
000020 14 42 20 3d dc f3 69 3d 33 72 96 3d da f3 49 bd
       0.039125517 0.057117328 0.073460005 -0.04930482
000030 c3 55 07 bd 20 35 f6 bd 18 aa e4 3b 92 ab 48 be
       -0.033040773 -0.120218515 0.0069782846 -0.19596699
000040 cc e3 e3 ba b7 0f 27 3e c2 85 f7 bd 51 56 e8 3d
       -0.0017386614 0.16314588 -0.12086059 0.113445885
000050 57 47 bd 3d 51 ed 8c 3d 85 a3 07 be 1f 29 7c 3d
       0.092421226 0.06881202 -0.13245972 0.061562654
000060 e3 3b 06 be 46 df be 3d f2 8a 55 3d 3e 76 47 3d
       -0.13108782 0.0931993 0.05213446 0.04869675
000070 66 51 83 bc 93 9d 10 be 46 f2 30 be c1 f1 44 3e
       -0.016030025 -0.1412261 -0.1727992 0.19232847
000080 8f 46 df 3c da a7 a7 3d 5c e5 f0 3d 40 c4 ef 3d
       0.027255325 0.08186312 0.11762497 0.117073536
000090 c2 fc bd bd 2a a9 2a 3e 06 5c ed bd 52 79 64 3e
       -0.09276725 0.16666093 -0.11589818 0.22311905
0000a0 03 6c fe 3b 08 3b aa 3d dc d3 da 3c c9 26 04 be
       0.007764341 0.083120406 0.02671235 -0.1290542
0000b0 9a 22 32 be a8 d3 14 be b5 d3 14 3e 00 74 e6 3d
       -0.17396012 -0.14533865 0.14533885 0.11252594
0000c0 88 b1 c7 bd 14 74 17 bd 88 94 8b 3d de 40 05 3e
       -0.09750658 -0.036975935 0.068154395 0.13013026
0000d0 16 5d 1f be bc 59 c7 3c 9d 0e 4c 3c 8d dc c5 bd
       -0.15562853 0.02433478 0.012454656 -0.09661207
0000e0 a0 35 5d bb 58 fc de 3d 52 18 9e 3e 5d 04 5c 3e
       -0.0033753887 0.108879745 0.3087793 0.2148604
0000f0 e1 15 71 3e c4 46 4b bc 32 1e 5d be 40 88 6c 3d
       0.23543502 -0.012407009 -0.2159355 0.057747126
000100 ca 45 a9 3b ec 3f dd bd 25 77 c3 bd 7d 3a d5 bd
       0.00516579 -0.10803208 -0.095442094 -0.104115464
000110 95 d8 35 3c 0d 60 80 bd c8 dc 9a bc d6 7c 18 3d
       0.011099 -0.0626832 -0.018904105 0.037228428
000120 60 c3 0f 3e 39 90 93 bd 60 87 0d 3e c7 ea 05 3e
       0.14039373 -0.07205243 0.13821173 0.13077842
000130 83 8e 3f bc b7 3f 27 bd af ab 9a 3b d8 f0 0b 3d
       -0.011691692 -0.040832248 0.0047201733 0.034165233
000140 15 7e 80 3e 8a cc 33 3e dc 7d 86 3b b1 4d 52 bc
       0.25096193 0.17558494 0.004104359 -0.012835906
000150 8e 3f 25 be d7 68 45 bd df 80 87 bd a0 bb bb 3d
       -0.16137525 -0.048195686 -0.06616377 0.09166646
000160 21 51 d7 3d 22 c3 5d 3e 90 e7 be bc 93 ab a6 bd
       0.10513521 0.21656469 -0.023303777 -0.08138194
000170 4b b5 fb bd 6a 28 9a 3c 68 da 86 3e 95 36 e6 bc
       -0.12290438 0.018818099 0.26338506 -0.028102199
000180 1a 9d 91 3d 4b d4 57 3e 77 4f 2f be 7a 80 4e be
       0.07110043 0.21077077 -0.17120157 -0.20166197
000190 aa b8 40 3d 55 7f 10 3e ae f9 72 be 3b c4 0d 3e
       0.04705111 0.14111073 -0.23728058 0.13844387
0001a0 78 5e 82 3d 7a 69 2a bd 3b 2f 76 3c 14 1a 05 be
       0.06365675 -0.041604497 0.015025909 -0.1299823
0001b0 f0 a4 03 3e de bd ea bc 32 ed ba 3c c0 01 d8 3d
       0.12855887 -0.028654989 0.022818182 0.10547209
0001c0 44 a2 1a 3d d2 ae 47 3d bf d9 1d be b3 0a 31 bd
       0.037752405 0.048750706 -0.15415095 -0.043223094
0001d0 08 84 2a bd 55 7a f2 bb 0c ce 3a 3e 9a b2 f2 bd
       -0.04162982 -0.007399837 0.18242663 -0.11850472
0001e0 76 a8 c9 bd 43 26 7c 3e 25 9c d2 bb 1e 84 37 bd
       -0.098465845 0.2462397 -0.0064273053 -0.04480373
0001f0 1d 01 a7 3d da 1d fc bc b4 ea 7f 3d 0a ea 44 3e
       0.08154509 -0.030775953 0.06247969 0.19229904
000200 1f 2c d8 3d 2e a6 0e 3e ac fc bc bd 50 99 89 3e
       0.105552904 0.1393058 -0.09227881 0.2687478
000210 ea d8 12 be fa ed bb bd 1a 13 38 3e b8 fb 3f 3d
       -0.14340559 -0.0917625 0.17976037 0.046870917
000220 1a 3d 64 3d 39 16 ef bd a3 26 f4 bc ee d9 3d 3e
       0.055722333 -0.116741605 -0.02980358 0.18540165
000230 68 53 d4 bc a1 f0 0b 3c fc 44 17 be 73 8e 13 3e
       -0.025918677 0.008541257 -0.14772409 0.14409809
000240 78 85 8b bc 6c 54 0e be a1 95 4a be 34 b6 97 bd
       -0.017031416 -0.13899392 -0.19783641 -0.07407799
000250 2d 5e f5 3c 8b 12 de 3d 95 a3 1a 3e 0f 27 ff 3d
       0.029952133 0.108433805 0.15101464 0.12458622
000260 33 12 d2 bd 2f e0 84 3d fe c4 a9 be bc fd 8e 3d
       -0.102573775 0.06488072 -0.33158106 0.0698199
000270 a5 37 f8 bd cb 16 f3 3d e4 0a 10 bd 62 e1 0b 3e
       -0.12119988 0.11869582 -0.035166636 0.13660195
000280 e9 6a 11 3d e0 28 f9 3d b4 5a 3b be 09 6e 74 be
       0.035502348 0.121659994 -0.18296319 -0.238701
000290 be 35 58 3d 89 d5 6e be 9f 4b af 3d c4 13 54 3d
       0.052785628 -0.23323645 0.085593455 0.051776662
0002a0 c8 28 17 3e e0 25 74 3e cb 59 6b 3e dc 6b 1d 3e
       0.1476165 0.23842573 0.22983472 0.15373176
0002b0 f9 22 ea 3d 32 fc 9e 3d e9 f3 ae bd 41 27 bd 3b
       0.11432452 0.07762946 -0.08542616 0.0057725017
0002c0 64 7a cb bd c8 60 0a 3e 73 ea d1 bd 1c bd 27 3e
       -0.099354535 0.13513482 -0.10249796 0.16380733
0002d0 2a 6c a6 3d 98 b3 0c be 5c c0 93 be 89 b7 de bd
       0.081260994 -0.13740385 -0.28857696 -0.1087485
0002e0 02 d7 53 bd ba 1e 45 3e e6 4d 76 be 43 c2 d9 3d
       -0.05171872 0.19250003 -0.24053153 0.106327556
0002f0 c3 df 34 3c 70 f3 b4 3d 2b 91 86 3d b3 9b 24 3e
       0.011039677 0.088354945 0.06570657 0.1607502
000300 45 5e cd bd 31 df ef bd a6 1e 35 be fb 12 8a 3c
       -0.10027746 -0.11712492 -0.17687473 0.016854754
000310 48 17 04 3e 46 3b e0 bd 27 6f 99 bc 29 76 02 3e
       0.12899506 -0.109488055 -0.01872976 0.12740387
000320 d7 15 d5 3d e5 15 64 3e a8 2a 14 3d 00 af 16 3c
       0.10404556 0.22273977 0.036173493 0.009196997
000330 c1 63 da bd 57 9c f7 3d 57 1e 28 3d cc 8f 41 3d
       -0.10663558 0.12090366 0.04104456 0.047256276
000340 a0 68 b5 3d 7a 46 0f be b8 18 a6 be f9 d9 f5 3d
       0.08857846 -0.13991728 -0.32440734 0.120044656
000350 72 df 14 3d ae a2 04 be a8 a0 40 be d4 60 3d be
       0.036345907 -0.12952682 -0.18811285 -0.18493968
000360 af e5 42 3d 79 bb 8f 3c 60 10 75 3d 91 ce 36 3d
       0.047582325 0.017545449 0.05983007 0.04463059
000370 97 e9 5b be 47 07 bf 3d 27 8e 47 3e 7f 90 9e 3d
       -0.21475826 0.0932756 0.1948782 0.07742404
000380 2f 85 85 bc ba c0 22 bd 40 51 04 3d 61 3d a8 bd
       -0.016298858 -0.03973458 0.03230405 -0.08214832
000390 45 4d 86 3d b1 41 5d 3e 19 48 08 3e 2e 1a 1e 3d
       0.06557707 0.2160709 0.13308753 0.038599186
0003a0 da 5d 4a bd 7a 4c 40 bd 31 d5 fc bd 7e f2 29 3e
       -0.04940591 -0.046947934 -0.123453505 0.1659641
0003b0 17 84 a9 bd eb 0f 5c 3e f1 ae 38 3c 42 97 c6 bb
       -0.08277147 0.21490447 0.011272178 -0.006060512
0003c0 b6 61 26 3e 01 2a 40 3d 6a 42 65 bd da 11 ed 3d
       0.16248211 0.046915058 -0.05597154 0.115756705
0003d0 4f 12 16 3e 0b 31 ec ba 29 55 5d 3d 32 26 f4 3c
       0.14655422 -0.0018019987 0.054036293 0.02980337
0003e0 fc 86 33 bc ea a5 e1 3d d0 54 07 be 0a cc 05 be
       -0.010957476 0.11017974 -0.13215947 -0.13066116
0003f0 ab a5 33 be 19 78 50 3e 66 fc 57 3e 57 1d c2 3d
       -0.17543666 0.20358314 0.21092376 0.094782524

sequential/dense_1/MatMul f4 [32, 32]
000000 9a d2 48 3e 5f 87 a4 3e 3e e1 7a bd bb 96 a6 bd
       0.19611588 0.3213453 -0.061249964 -0.08134218
000010 46 e5 64 bd dd 3f 34 be 7c 17 e4 bd c1 3e f6 3d
       -0.055882715 -0.17602487 -0.11137292 0.12023688
000020 ab ac 05 3e a1 bc fe 3c 91 3d 92 be 7b ad 81 3e
       0.13054149 0.031095805 -0.28562596 0.25327668
000030 41 f8 d8 3d 06 02 cf 3e 74 2b 65 bd 87 12 8e be
       0.10594226 0.4043123 -0.055949643 -0.2774851
000040 6e 4a 3e be e0 6b b2 b9 b3 69 bf be a4 33 b4 3d
       -0.1858308 -0.0003403118 -0.3738533 0.08798912
000050 73 f6 06 be 9a 20 8b 3e ad 0f a7 3e fe 2d a4 bd
       -0.1317995 0.2717331 0.32629147 -0.08016585
000060 ce 3a a6 be 2e 98 e2 be 8b df 90 be 93 54 71 3e
       -0.3246674 -0.4425673 -0.2829555 0.23567419
000070 f0 af ab 3e 12 53 62 bd c8 84 8a be ca 0f d2 be
       0.33532667 -0.055255003 -0.2705443 -0.4102767
000080 6f 61 49 be 34 ea a7 3b 93 f0 a0 bd ea db 24 bd
       -0.19666074 0.0051243547 -0.07858386 -0.04024879
000090 2b 63 05 be d9 70 22 3d 1d f6 82 3e f7 2b 9e 3e
       -0.13026111 0.0396584 0.25578395 0.30892918
0000a0 71 c1 90 3e e8 e1 60 3d f6 19 eb bd c3 88 9e bc
       0.28272584 0.05490294 -0.11479561 -0.019352322
0000b0 aa 9b 37 bd 20 9f 2b 3e f5 fc 52 bd 1b a5 e3 3e
       -0.044826187 0.1675992 -0.05151077 0.44461903
0000c0 7a 1f 23 3d 9f 54 d2 3e 8a 6b 36 3c cf f5 1a 3e
       0.03982494 0.41080186 0.011134038 0.15132831
0000d0 b8 aa 5f 3e a4 e1 aa bd bb 18 c1 bd ee f4 ad bd
       0.21842468 -0.08343819 -0.09428545 -0.08493982
0000e0 56 cc 84 be 8f 65 8f 3e d6 d5 fc 3e ae a4 d2 3c
       -0.25937146 0.2800717 0.49381894 0.025713291
0000f0 10 3e 51 be b6 1a de bc 5d 74 1b 3e 06 fa 4e 3e
       -0.20433831 -0.027112346 0.15181108 0.20212564
000100 46 99 bf bc f4 08 41 be c1 fa 92 3d 6f 5d d8 3b
       -0.023388516 -0.18851072 0.07176734 0.006602935
000110 21 14 81 3e a2 7b 82 3d d7 37 1c 3e 22 c2 98 bd
       0.2521067 0.06371237 0.15255676 -0.07458903
000120 d6 c2 58 be 4e 79 25 3e 00 2c 16 be 77 a1 58 3e
       -0.21168074 0.16159555 -0.14665222 0.21155344
000130 13 d3 b0 3e cc d0 1a be 24 07 b8 be 56 7e f1 3d
       0.34536037 -0.15118712 -0.35942948 0.11791675
000140 e9 b8 a1 bd 22 af 05 be 2d 3e e7 3d 25 88 59 be
       -0.07896597 -0.13055089 0.11291156 -0.21243341
000150 78 4d 42 bd 11 14 8e 3e 9d 6e 85 3e 2d a1 80 be
       -0.04743716 0.27749684 0.26060954 -0.25122967
000160 83 5a 46 3e fa 4c e9 bd e7 6a c2 be e4 69 ae be
       0.19370465 -0.11391635 -0.37972185 -0.34065163
000170 52 84 14 be e1 30 b9 3e ca a0 87 3e 4c 59 a3 3d
       -0.14503601 0.36170104 0.2648986 0.079760164
000180 29 1e 71 3e d6 8a 00 3e ea f7 9c 3e cc 8a 81 be
       0.23546661 0.12552962 0.30657893 -0.25301206
000190 3b c1 3c 3d f5 a0 87 be 94 32 0b 3e fc 72 5f be
       0.046082716 -0.26489988 0.13593513 -0.21821207
0001a0 6d 1e 01 be 07 b1 87 bd 84 cd a4 3d 26 08 19 3e
       -0.12609263 -0.06625562 0.080470115 0.14944515
0001b0 65 6d c8 3e a4 cb 89 3e e0 7e db bd 35 c9 e9 be
       0.3914596 0.26913178 -0.10717559 -0.4566132
0001c0 e9 ea b8 bc df 7f 8d be 8c e0 85 be ce 3a 74 3b
       -0.022572951 -0.2763662 -0.26147878 0.0037266496
0001d0 ab 3d 4c be 24 76 9f 3e 43 10 40 be cb 55 0a bc
       -0.199454 0.31144822 -0.18756203 -0.008443306
0001e0 40 2e e2 3d 47 3e 50 3e 64 ad 73 3c d4 6e 2c 3e
       0.11043978 0.20336257 0.0148728825 0.16839153
0001f0 79 82 7b be ab a4 3c bd e8 c4 12 be c1 7c 14 be
       -0.2456149 -0.046055477 -0.14332926 -0.14500715
000200 6b e3 83 bd 56 28 9a be 57 b0 81 be 6e 94 1d 3d
       -0.06439861 -0.301089 -0.2532985 0.03847163
000210 36 c2 66 be 54 8c 2a be ef e8 76 be 39 4c e1 3c
       -0.22535023 -0.16655093 -0.24112295 0.027502166
000220 21 f3 e6 3d 0b f2 96 3e 17 b3 83 be 41 b9 b5 bd
       0.11276842 0.2948154 -0.25722572 -0.08873225
000230 8e 7a 72 be 99 66 8f bb 4c c8 89 3b 4a 92 22 3e
       -0.23679563 -0.0043762443 0.0042047855 0.15876117
000240 00 98 db bd ae 3c 9d bd f7 38 81 be f8 21 5a be
       -0.10722351 -0.07677589 -0.25238773 -0.2130202
000250 b7 d6 ca bd df 34 b7 3d bf 00 b6 3e e5 d9 10 3e
       -0.09904235 0.08945631 0.35547444 0.1414562
000260 c9 9f 1f be 23 19 4e bd 37 e1 ac bd 75 9f df 3d
       -0.15588297 -0.05031694 -0.08441394 0.10919086
000270 c4 25 f9 3c be 8b 52 be 66 4b b9 3d 5b a3 52 be
       0.030413516 -0.2056112 0.09047584 -0.20570128
000280 ec 03 3a be 4d 1e 1d 3e 04 3b 4a bd 0e 4a 9f bd
       -0.18165559 0.1534359 -0.049372688 -0.07777797
000290 62 d1 58 be a1 fb f5 3d b1 ce 80 3e ac 35 85 bd
       -0.21173623 0.12010885 0.25157693 -0.06504378
0002a0 94 0f 54 be 86 ba 03 3e e7 51 c3 3d e8 90 48 be
       -0.20709068 0.12864122 0.09537106 -0.19586527
0002b0 88 99 06 bd 7b 1a 4a bc e3 35 c5 3e 45 89 a3 3d
       -0.032861263 -0.012335415 0.38517675 0.079851665
0002c0 5a 3a 58 be 1f 97 bf 3d 80 20 9e 3e 53 bf b2 3e
       -0.2111601 0.09354996 0.3088417 0.34911594
0002d0 e7 f2 61 3e de f7 71 bc 1b 73 10 be 79 0c 81 3e
       0.22065316 -0.014768569 -0.14106409 0.25204828
0002e0 b1 66 c6 3d 39 f5 7c be 36 2f 0a bd 9a 6e 89 bd
       0.096875556 -0.2470292 -0.03373643 -0.06710549
0002f0 82 19 c6 3b 10 e9 f2 bd 57 84 2f bd 83 d9 22 3e
       0.0060455212 -0.118608594 -0.04285082 0.15903287
000300 7c 84 9d 3e bd 6f db 3d 49 5b 4f be 64 3f 43 3d
       0.3076514 0.10714672 -0.20249666 0.047667876
000310 db 9c 6a 3d b9 9e a2 3d 66 ed 33 be 3c 68 8f bd
       0.057278495 0.0794043 -0.17571029 -0.07002303
000320 39 2c 35 be 38 b3 1a be 0d 37 28 bd 0d 37 3f be
       -0.17692651 -0.15107429 -0.041068126 -0.18673344
000330 de 9a 33 be 42 7c bf 3e 27 91 ca be ab 38 35 be
       -0.17539546 0.3739949 -0.39563867 -0.17697398
000340 e1 6f 8b 3e 58 04 e0 be 7a 2f 4c 3d b6 71 ba 3c
       0.27233794 -0.43753314 0.049849965 0.0227593
000350 6c 11 0a 3e fe 46 80 3e a6 6f e0 3d ad 4b 30 3d
       0.13483208 0.25054163 0.10958795 0.04304092
000360 33 04 a6 3e 3c f7 84 3e 22 f8 a2 be a5 bc 52 be
       0.3242508 0.25969875 -0.31829935 -0.20579775
000370 44 8b d1 3e 46 19 fe bd 1c 08 44 3e 95 56 d1 bd
       0.40926564 -0.12407164 0.19143718 -0.10221592
000380 dd ee bd bd 35 88 11 bc 0d f8 8a be 35 69 aa 3e
       -0.09274075 -0.008882572 -0.27142373 0.33283392
000390 84 0e 70 3e 3d f4 d3 3e 31 79 70 3e 95 5a 83 3e
       0.23443037 0.41397277 0.23483731 0.25655046
0003a0 ce c3 a8 3d 17 14 5c be b9 7d b6 3e e8 9d 88 3e
       0.08240472 -0.21492039 0.35642794 0.26682973
0003b0 c3 15 8f bd 3c 1f 53 3d 50 4b f2 3e 09 83 aa 3e
       -0.069865726 0.05154346 0.47323084 0.33303097
0003c0 f5 1b 39 bd 78 53 93 3e c3 33 eb bd 47 1d 4b 3e
       -0.045192678 0.2877462 -0.11484482 0.19835387
0003d0 a0 f1 97 be 1e ea 42 bb 34 b0 a8 bd a6 50 07 3d
       -0.29676533 -0.0029741595 -0.08236733 0.033035897
0003e0 43 c3 40 be 5f 88 01 3e 15 1d 7e 3e cf 4a c0 bd
       -0.18824486 0.12649678 0.24815781 -0.093892686
0003f0 76 00 18 be 3d ef 39 3c ac a0 9b 3e 36 d7 1b be
       -0.14843926 0.011348543 0.3039602 -0.15218815

sequential/y_pred/MatMul f4 [2, 32]
000000 ce b9 b4 3e f9 44 f1 be 24 b2 90 3e 84 56 f3 3e
       0.35298008 -0.47122934 0.2826091 0.47526944
000010 88 7d f4 3e b5 30 c8 be cf e8 19 bd 02 25 10 bf
       0.47752023 -0.3909966 -0.03757554 -0.5630647
000020 dc 88 e1 3d d2 cf e8 3e a4 b9 1d be 08 3e 02 bf
       0.11012432 0.45471054 -0.15402848 -0.508759
000030 da a9 f6 be 9d 64 f9 3e 6f 84 29 be 5b 3e a0 3e
       -0.4817646 0.48709574 -0.16554426 0.31297573
000040 41 05 10 3f 1e cd ba 3e 1a 98 7f 3e 27 0b 97 be
       0.56258017 0.36484617 0.24960366 -0.29500696
000050 46 3c 8c 3d 02 50 39 3e 12 07 45 be 22 b5 7a 3e
       0.06847434 0.18096927 -0.19240978 0.24483159
000060 2e d4 af be 39 cd 9d 3d 22 65 f8 3e ed f6 a1 3e
       -0.34341568 0.07705159 0.48514658 0.31633702
000070 61 9c 5b 3d 8d 51 82 3d af 4e 0c bf 6f 5a 1e 3e
       0.05361593 0.06363211 -0.5480756 0.15464185
000080 7d 0c f6 3d dd 5c 39 3e 05 f8 f2 bd 1b 4a 4a be
       0.12014101 0.18101831 -0.11863712 -0.19754831
000090 5d 18 c6 be d9 f8 00 3e b4 e3 fe be 05 8f c8 3e
       -0.38690463 0.12594928 -0.497831 0.39171615
0000a0 4a f3 c7 be 4c c1 29 bd 0d c2 02 bf c3 93 7a bb
       -0.39052802 -0.041444108 -0.5107735 -0.0038235046
0000b0 67 54 df 3d 4a dc 44 3e 6a 67 45 3e 7b 83 5c be
       0.1090477 0.19224659 0.1927773 -0.21534531
0000c0 b1 a5 9a be 10 24 f6 be 99 23 d5 bb 5a 7d b0 be
       -0.30204538 -0.48074389 -0.0065044877 -0.34470636
0000d0 e4 0b e2 3e da bd cf bd 08 d3 82 3e e7 7e c7 3d
       0.44149697 -0.10143633 0.2555163 0.097410016
0000e0 ff 39 d5 3e 35 b9 e5 be d1 a6 44 be 63 b5 fb be
       0.4164581 -0.44867864 -0.1920426 -0.49161825
0000f0 6d b5 bc 3d 58 9b e1 3e 12 b8 c4 3e f2 3f 13 3f
       0.09214292 0.4406383 0.38421685 0.5751945
