modelo2/tflite-model/tflite_learn_840915_110.tflite (tflite, 325476 bytes, 41 tensors)

model/activation/Relu;model/batch_normalization/batchnorm/add_1;model/conv1d_1/Conv1D/Squeeze;model/batch_normalization/batchnorm/mul_1;model/conv1d_1/BiasAdd;model/conv1d_1/BiasAdd/ReadVariableOp;model/batch_normalization/batchnorm/mul;model/batch_normalization/batchnorm/sub;model/conv1d_1/Conv1D;model/conv1d_4/Conv1D f4 [16]
00000000: e876 823d 86c3 29bd 3bdf 93bc 6ed2 2ebc
00000010: 7676 f4bc 6827 73bc 9327 8bbd c64c 0abe
00000020: 2571 fabd ffd4 533c a2a9 44bd 5f68 2cbd
00000030: 63ac adbd 5379 2a3d c215 83bd 1af8 febd
0.06370336 -0.04144623 -0.01805078 -0.010670288 -0.029841643 -0.014840938 -0.067946576 -0.13505849
-0.12228612 0.0129292 -0.048013337 -0.042091724 -0.08480146 0.04161961 -0.06400634 -0.12449665

model/batch_normalization_1/batchnorm/add_1;model/conv1d_2/Conv1D/Squeeze;model/batch_normalization_1/batchnorm/mul_1;model/conv1d_2/BiasAdd;model/conv1d_2/BiasAdd/ReadVariableOp;model/batch_normalization_1/batchnorm/mul;model/batch_normalization_1/batchnorm/sub;model/conv1d_2/Conv1D;model/conv1d_4/Conv1D f4 [16]
00000000: c247 263f 989f 883d 173f a6bc 18cf 4d3e
00000010: 9e11 d9be 92cc 4cbf ce1b f33e 52f8 4f3e
00000020: f0a7 de3e d4fc 7bbe 2b76 68bf a8e1 403f
00000030: 00c1 39be 5aff b0be 55e8 ed3e f2c9 0b3e
0.64953244 0.06671065 -0.020293755 0.20098531 -0.42396253 -0.7999965 0.4748215 0.2030957
0.434875 -0.24608165 -0.9080531 0.75344324 -0.1814003 -0.34569818 0.46466318 0.13651255

model/activation_2/Relu;model/batch_normalization_2/batchnorm/add_1;model/conv1d_6/Conv1D/Squeeze;model/batch_normalization_2/batchnorm/mul_1;model/conv1d_6/BiasAdd;model/conv1d_6/BiasAdd/ReadVariableOp;model/batch_normalization_2/batchnorm/mul;model/batch_normalization_2/batchnorm/sub;model/conv1d_6/Conv1D;model/conv1d_9/Conv1D f4 [32]
00000000: 4009 07be df63 09bf ab65 27bf 62df 913e
00000010: 97b5 d13d 4701 c13e dc66 373e c060 52be
00000020: 3652 a63e 0df0 243f 1f09 88bf 4747 88bc
00000030: 2d22 f0bd f89b 703d a340 a23e cca5 763f
00000040: 635e 093f 4970 c13b aaf5 2ebf 6b80 123f
00000050: 43d8 b8be 267c 7dbe 77ca ec3e 4523 e13e
00000060: b0b1 923e ed84 10be cc64 563f 5189 4bbe
00000070: 0dee 4abf c69d a63e 15ad 8fbd 4e86 1fbf
-0.13187122 -0.53668016 -0.6538951 0.2849074 0.10239714 0.37696287 0.17910331 -0.2054472
0.32484597 0.6442879 -1.0627784 -0.01663555 -0.117252685 0.058742493 0.3168994 0.96346736
0.5365965 0.005903278 -0.68343604 0.572272 -0.36102495 -0.2475439 0.46248218 0.4397222
0.2865119 -0.14113207 0.83747554 -0.19876601 -0.79269487 0.32542247 -0.07015435 -0.6231431

model/batch_normalization_3/batchnorm/add_1;model/conv1d_7/Conv1D/Squeeze;model/batch_normalization_3/batchnorm/mul_1;model/conv1d_7/BiasAdd;model/conv1d_7/BiasAdd/ReadVariableOp;model/batch_normalization_3/batchnorm/mul;model/batch_normalization_3/batchnorm/sub;model/conv1d_7/Conv1D;model/conv1d_9/Conv1D f4 [32]
00000000: eeac bd3e 9fa2 86be e14a ab3e a0de 183f
00000010: 4ac8 b43d 579e 4a3f 4b0e 763f b002 2d3e
00000020: 973f 02bf d82f 863e 2956 103f eb3e 01be
00000030: d2be 3dbe ecce 393e c87d 143e 5521 183f
00000040: 76e0 52be aee1 5c3e 1002 5abe 9122 30bd
00000050: 6719 713e 8e1f c4be be4d 3b3e d6b1 7a3f
00000060: 82f1 2e3e 53b7 cbbe 8269 973c d38c 9d3e
00000070: 1090 133f bc48 c63e 2ebc a0be 8756 b5be
0.37045997 -0.26295945 0.33455566 0.597147 0.088272646 0.7914786 0.9611556 0.16895556
-0.5087828 0.26208377 0.5638147 -0.12621658 -0.18529823 0.1814534 0.14501107 0.5942586
-0.20593438 0.21570465 -0.2128985 -0.043001715 0.23544846 -0.38305324 0.18291375 0.97927606
0.17084315 -0.39788303 0.018482927 0.30771503 0.57641697 0.38727367 -0.3139357 -0.35417578

model/activation_4/Relu;model/batch_normalization_4/batchnorm/add_1;model/conv1d_11/Conv1D/Squeeze;model/batch_normalization_4/batchnorm/mul_1;model/conv1d_11/BiasAdd;model/conv1d_11/BiasAdd/ReadVariableOp;model/batch_normalization_4/batchnorm/mul;model/batch_normalization_4/batchnorm/sub;model/conv1d_11/Conv1D;model/conv1d_14/Conv1D f4 [64]
00000000: a9d9 22bf fbc7 46bf 1e4c 523f 6f6e ae3d
00000010: dd3c fe3d 9dc3 bbbe ddd0 ffbe 525a e23d
00000020: d148 b9be 7196 47bf 9c94 9bbf fa16 3cbf
00000030: 10c8 7fbf 1e05 5dbf 7ad8 833e 72e0 3bbf
00000040: 16c2 36bf 2dec 0b3f 29c1 1fbf 2ca9 d9be
00000050: 3e07 d13e 01fa 4d3f 0e3b 38bf e4d5 f93e
00000060: 7de5 85be b219 b6bd 7bb8 7a3f a8da 45bf
00000070: d004 b7be a798 133f e2b6 84bf b1e1 58bf
00000080: 8f2a 03bf 6568 4d3f 8537 abbe 6c72 113e
00000090: 04c8 213e 92d2 163f 339d 81bf 2993 02be
000000a0: 6361 6fbf 220f da3d f405 a23f 9826 b93e
000000b0: d936 99bf a0c8 ae3f 06d4 45bf a662 553f
000000c0: 362b 3f3f a8cc 29bf 0845 933f 45a9 17bf
000000d0: db79 59bf 1159 4fbf 1e2e 4fbf 5b52 383f
000000e0: cadc 1dbe 24dc 7d3f 1f1d 27bf d34c 323f
000000f0: 3fcf a5be 75c6 dcbd 9e69 0b3f 3e47 43bf
-0.63613373 -0.77648896 0.82147396 0.08517157 0.124139525 -0.3667268 -0.49964038 0.110523835
-0.36188367 -0.7796393 -1.2154727 -0.7347256 -0.99914646 -0.86335933 0.25751096 -0.7338935
-0.713899 0.5465725 -0.62404114 -0.4251188 0.40825838 0.804596 -0.7196511 0.48795998
-0.26151648 -0.0889162 0.97937745 -0.7728677 -0.3574586 0.57654804 -1.0368311 -0.8471938
-0.51236814 0.8023742 -0.33440796 0.14203805 0.15798956 0.58915055 -1.0126098 -0.1275145
-0.93507975 0.106474176 1.2658067 0.36162257 -1.1969863 1.3654976 -0.7727665 0.8335365
0.7467531 -0.66327906 1.1505442 -0.5924266 -0.8495156 -0.8099528 -0.80929744 0.72000664
-0.15416256 0.9916403 -0.6527881 0.69648474 -0.3238468 -0.1078004 0.54458034 -0.7628058

model/batch_normalization_5/batchnorm/add_1;model/conv1d_12/Conv1D/Squeeze;model/batch_normalization_5/batchnorm/mul_1;model/conv1d_12/BiasAdd;model/conv1d_12/BiasAdd/ReadVariableOp;model/batch_normalization_5/batchnorm/mul;model/batch_normalization_5/batchnorm/sub;model/conv1d_12/Conv1D;model/conv1d_14/Conv1D f4 [64]
00000000: 5a74 a93e ac48 c7be ed20 bbbe 62c4 4dbe
00000010: ce65 1fbf 6439 e63e 2f30 2fbf 3f9c 703e
00000020: efe2 36bf 7721 83bf 6814 823d c815 25be
00000030: b485 e0be 99ec acbe fb96 27be 3b4d db3e
00000040: d1e2 2b3e 6c63 db3e 2a7d a0be cc5f abbe
00000050: 2075 503f f71a b8be df2a c6ba 95ba 42be
00000060: 91ec 0c3f 467b 05bf cc35 0fbf 36e1 893b
00000070: 34cd 043f 8360 843e 6943 a03e e844 163e
00000080: ad9c 803e b112 2e3f d9eb d8bd 6c39 84be
00000090: 21e5 c43e 66bb 77be 8317 db3e f79e 02bf
000000a0: e05a c33e 838e d0bd e9ac f23e cfdf 1abf
000000b0: 5235 af3e c08b 053d b939 a33d 8484 f1be
000000c0: 917f 9b3e 43e0 fa3e 0905 b4be 108b 633e
000000d0: 27f9 aebe a007 c03e eb0d 113f 9fd4 d43e
000000e0: 072d d53e b7bb 293f b628 cc3e 3010 bb3e
000000f0: d8fc f6be 7ff3 abbe 4bc0 653e 147a 9fbe
0.33096582 -0.38922632 -0.36548558 -0.20094445 -0.62264717 0.4496566 -0.684329 0.23497103
-0.71440023 -1.0244588 0.063515484 -0.1612159 -0.43852007 -0.3377426 -0.16366188 0.4283236
0.16785742 0.4284929 -0.31345493 -0.33471525 0.8142872 -0.35958073 -0.0015118978 -0.19016488
0.5504847 -0.52141225 -0.5594146 0.0042077554 0.51875615 0.25854883 0.3130143 0.14674723
0.25119534 0.6799727 -0.10591859 -0.2582506 0.3845606 -0.2419258 0.42791376 -0.5102381
0.3815527 -0.10183432 0.47397545 -0.60497755 0.34220368 0.03260398 0.07969994 -0.47171414
0.30370763 0.48999223 -0.35160092 0.22221017 -0.34174463 0.37505817 0.5666186 0.41568467
0.41635916 0.66302055 0.3987481 0.36535788 -0.4823978 -0.3358421 0.22436635 -0.31147826

model/batch_normalization/batchnorm/mul_1;model/conv1d_1/Conv1D/Squeeze;model/conv1d_1/BiasAdd;model/conv1d_1/BiasAdd/ReadVariableOp;model/batch_normalization/batchnorm/mul;model/conv1d_1/Conv1D;model/conv1d_4/Conv1D f4 [16, 1, 7, 1]
00000000: 7f62 d33d 58b4 7c3e 5404 0a3f 4cec 143f
00000010: 85b2 f9bd 41ea 4fbe 9a71 ccbc c156 cabe
00000020: 699d f43e 856f ebbd 78be f33e 262e debd
00000030: 0af8 07bf f114 dfbe 5033 65be 1fc0 6b3f
00000040: 1092 bdbe 0468 8e3e 8d83 dfbc 0552 0dbf
00000050: 397a e23a 10e6 b33e 813c f6be 0f30 963e
00000060: 63fa 2cbe cfea 3e3f 162d 7cbd 687f d6be
00000070: ae47 5ebe c17f e5be 4d61 54bd 42de 0ebe
00000080: 399c 0abf c148 e5be 3980 963c 713d 13bf
00000090: 9163 6b3e 4f75 003e 6383 b73e aa87 20be
000000a0: 1453 16bf 225c 74be d9f9 363f 7bd7 d4bd
000000b0: d627 8abb ce76 213f e8ae 24bf 45d5 01be
000000c0: 23c9 413e 0ff2 14bd e4ee d83e c0b0 9bbd
000000d0: f8f2 adbe 8b8b e3be 5f37 4e3e 85de dc3e
000000e0: 7560 033f f5c0 23bf 5700 213f d903 9b3e
000000f0: 7350 783d 3eec b4bd 31e8 aa3e 2685 9f3e
00000100: eb3b 84be 51de ab3e 6893 f23e a779 24be
00000110: e546 e03e ee91 f13e 3e4f 06bf 1fc5 07bf
00000120: 27fa b8be 3065 7d3e 7065 1a3e f66b 4cbd
00000130: dd36 7d3e 33e5 35bf eb33 a33d aaa0 9bbe
00000140: 15ad 053f d531 753e 80de 17be 7495 aebe
00000150: 5ee4 fcbe e04a cc3e 68cf 85be cdbe 0c3f
00000160: 06ec 2ebe d6e6 2a3c 475b 1a3f 2247 cd3d
00000170: 2d94 fe3c 9ba7 64be b5e0 9bbe e334 39bf
00000180: 9591 123f d26f 02bf 1005 c83e cae8 5b3e
00000190: 0cd6 d93e a99e 6bbe 6045 68bc 8195 dc3e
000001a0: 665d ad3e 1567 2f3e 0f8a ed3e 0eb2 19bd
000001b0: bd8e 35bf e12f 04be 95f5 c0be 4f50 65be
0.10321521 0.2467817 0.53912854 0.5817306 -0.12192253 -0.20304205 -0.024956513 -0.39519313
0.47776344 -0.1149588 0.47606254 -0.10848646 -0.5311285 -0.43570665 -0.22382855 0.9209003
-0.370255 0.27813733 -0.027284408 -0.55203277 0.0017278857 0.3513646 -0.48093036 0.2933354
-0.1689239 0.7457704 -0.061566435 -0.41894078 -0.21707031 -0.4482403 -0.051850606 -0.13951972
-0.54144627 -0.4478207 0.018371688 -0.5751563 0.229872 0.1254475 0.35842428 -0.15676752
-0.5872052 -0.23863271 0.7147499 -0.10392662 -0.0042161746 0.63071907 -0.64329386 -0.12679012
0.18924384 -0.036363658 0.4236976 -0.07602072 -0.33974433 -0.444424 0.2013831 0.4313852
0.51319057 -0.63966304 0.62891144 0.30276373 0.060623597 -0.08834122 0.33380273 0.31156272
-0.25826964 0.3356805 0.47378087 -0.16062032 0.43804088 0.47181648 -0.52464664 -0.5303516
-0.3612835 0.24745631 0.15077758 -0.049907647 0.2472796 -0.71052855 0.07968887 -0.30396014
0.5221723 0.2394479 -0.14830971 -0.340984 -0.4939298 0.39900875 -0.261348 0.5497864
-0.17082223 0.010431012 0.6029553 0.10023333 0.031076515 -0.22329561 -0.30444875 -0.72346324
0.5725339 -0.50951874 0.39066362 0.2147552 0.42546117 -0.23009743 -0.014176697 0.43082812
0.3386032 0.17129166 0.46394393 -0.03752332 -0.70920926 -0.1290889 -0.37687364 -0.22393917

model/batch_normalization_1/batchnorm/mul_1;model/conv1d_2/Conv1D/Squeeze;model/conv1d_2/BiasAdd;model/conv1d_2/BiasAdd/ReadVariableOp;model/batch_normalization_1/batchnorm/mul;model/conv1d_2/Conv1D;model/conv1d_4/Conv1D f4 [16, 1, 7, 16]
00000000: 50fc bc3d aff8 4b3d 6c4c 4d3e ad0b d6bd
00000010: 4592 9fbd 2920 a13d 34a1 e4bb 656c 16be
00000020: 8d26 89bd cbf8 743d ea89 51bd 4633 413e
00000030: 1655 7f3d 80ff bb3d a56a b4bc 0678 a83c
00000040: 0c44 d33d 5511 45be 3972 edbd 52ca 0cbe
00000050: d7ed 15be 37ef 343d fbc2 e13d 8c8b c93a
00000060: e1cf 003e 1288 19bd 42a6 7fbe e401 ddbd
00000070: d949 3ebd 3883 023e c8ca 7d3e efe6 89bd
00000080: df44 9cbc 7fcd 00be 792a 0d3e e5fa 8ebd
00000090: 85a4 4a3e 92a2 08be 92ff 1c3d 69b5 dabd
000000a0: e1d1 17be 6694 a6bd c153 4dbe f066 f0bc
000000b0: bd6b 413e ee2c 063d 08f9 8ebd 90a3 6c3d
000000c0: b70b 923c 56e6 57be f75d 7fbe 1524 8cbd
000000d0: 0007 49be c4e6 2c3d a98f 2cbe ffa0 97bd
000000e0: 4eb0 753d fe7c 39be 5c5a 35be 9dce 3fbe
000000f0: cfb6 0b3e bbde f73d 478b babd 8390 efbd
00000100: 09cf c2bb 3713 273e 8765 13bd 143f 063e
00000110: cec1 253e 1aac 89bc 9d38 8abb 4dd3 a4bd
00000120: 6272 1ebe 2f7c 13be 1d48 a53c 9b39 613d
00000130: 00f7 1dbd 73af 1dbe ac41 093e 81e5 59be
00000140: 8891 483e 8694 0cbe cf31 2dbe 44da 47bd
00000150: 2b9d b7bd ce21 3fbe 27f0 01be 4c69 533e
00000160: 8de2 1b3e 6177 3e3e 4edc c23d 1667 23be
00000170: ff20 96bb 64f7 d1bd caba 943d eb46 f73c
00000180: 8b82 6cbe 48ca 2d3e aff2 5c3e 0292 e23d
00000190: 3255 23be c2a8 b8bd 4510 00be cf8a b6bd
000001a0: b215 d33b 8249 22be bf6c 663d 9a9d 3bbd
000001b0: 412a 9abd e74e a7bd fb11 1fbe 636c 813d
000001c0: b94e 1d3e 6a38 4cbe 2f81 e7bb 20fd 223e
000001d0: 9a99 3e3e 79cb adbd fbb0 813e afad d13c
000001e0: 6136 263e 138c f83d b3cb ffbd 2d54 84be
000001f0: 2133 373e 0687 0bbe e3ed e53d 10c0 32be
00000200: e902 4fbe a688 5bbd 5079 21be e92d 7a3e
00000210: 08e5 6bbd 892a fdbd 7cd7 063e f9fd bfbd
00000220: b0f3 2ebe 0c86 c7bc d355 233d 9183 05be
00000230: 2db7 4cbd d549 6cbd ab73 4d3d a1fd cd3d
00000240: 046e bf3d 01a4 513e 7f55 3fbd 8290 2cbd
00000250: 42e0 10be 7373 673e c09e 22bd cc9c 3e3e
00000260: 11ab 443e 9407 d03b 5245 f3bd fb11 c83d
00000270: 3592 4bbc d16d 8cbd 4c60 973d cfff 8a3e
00000280: 7b60 463e 0acf 2f3e deac be3d fd14 acbc
00000290: d212 8f3d 8ad9 21be 3329 023e f969 94be
000002a0: 8dae 17bd 47dc 913d d100 d43d ebf3 46be
000002b0: 813e 25bd 806c 29be e404 3fbe 3e77 803d
000002c0: 5373 11bd acc6 723d af27 44bc 7ff9 0f3e
000002d0: 8125 1f3d abcd d0bd 0d92 643d b4ef 613e
000002e0: 58a0 69bd b4ef 25be 21ee b1bd fd74 4fbe
000002f0: ed1b 1bbd cb22 36be 8486 30be fcce 6d3e
00000300: 38df 823c da89 e63b 42de 123c d892 72be
00000310: 9ac9 14be a9da d83d 27da 4bbb d007 dc3d
00000320: a03b 16be a862 fabd d5d4 59bd 7349 393d
00000330: 34ca 3a3e ce45 6cbd fe89 af3d af00 05be
00000340: ebfd ab3d bc53 713d d1f4 f33c 495c c7bd
00000350: 48e2 8e3c 0d90 52bc 3835 30be a998 323c
00000360: dee6 1f3e 0149 fd3d add6 2abc 656e debd
00000370: c6eb 01be f313 a53d c495 0c3e 94c1 11be
00000380: 9c73 7dbe 4819 283e abdc 293e 0c65 2c3e
00000390: 47f4 513e b5d6 513e 5bbf 2cbe 958e 34be
000003a0: 75f9 f7bd 16df 70bd a108 44bd c6e8 6ebd
000003b0: 0dff 143e a979 763d 70fd 223e d50c cbbd
000003c0: 811e 183e 7746 173e 0fc3 3fbe c347 aeb9
000003d0: cf86 1f3d b7eb 04be 789e 0dbe 00f1 6fbe
000003e0: b713 483e 5873 fabc f0a6 0b3d b2a8 56bd
000003f0: 9d42 6b3e bcac 84bd 1440 b13d bd6d b33d
0.09227812 0.04979771 0.20048684 -0.10451446 -0.077915706 0.07867462 -0.0069772247 -0.14689787
-0.06696806 0.05980758 -0.051156916 0.18867216 0.062337004 0.09179592 -0.022023508 0.020565044
0.10315713 -0.19244893 -0.11594052 -0.13749054 -0.1464151 0.044173446 0.11023518 0.0015376671
0.125793 -0.037483282 -0.24965766 -0.10791376 -0.046457145 0.12745368 0.24784386 -0.067335
-0.019075809 -0.1257839 0.13785733 -0.06981448 0.19789322 -0.13343266 0.03832967 -0.106791325
-0.14826156 -0.081337735 -0.20051481 -0.02934596 0.18888755 0.032757692 -0.06981093 0.057773173
0.017827852 -0.2108396 -0.24938188 -0.068428196 -0.19631577 0.042212263 -0.16851677 -0.074037544
0.05998259 -0.18114087 -0.1771025 -0.1873116 0.13643955 0.12103029 -0.09108596 -0.11697485
-0.0059450907 0.16315924 -0.035985496 0.1311 0.16187212 -0.016805697 -0.0042181746 -0.08048115
-0.15473321 -0.14402841 0.020175988 0.054986577 -0.038565636 -0.1539896 0.13403958 -0.21278955
0.19586766 -0.13728532 -0.16913532 -0.04879214 -0.08965524 -0.18665239 -0.12689267 0.20645636
0.15223141 0.18600227 0.09514676 -0.15957293 -0.00458157 -0.10252264 0.0726219 0.030185184
-0.23096673 0.16971695 0.21576951 0.11063005 -0.15950468 -0.09016563 -0.12506206 -0.089131944
0.0064417953 -0.15848354 0.056256052 -0.045804597 -0.075275905 -0.08169346 -0.15534203 0.06319501
0.15362062 -0.19943395 -0.0070649604 0.15916872 0.18613282 -0.08486075 0.25330338 0.025595514
0.16231681 0.12136092 -0.124900244 -0.2584547 0.17890598 -0.13625726 0.11227014 -0.17456079
-0.20215954 -0.053597115 -0.15768933 0.24431576 -0.057591468 -0.123616286 0.13168138 -0.09374613
-0.17085147 -0.02435591 0.03987677 -0.1303847 -0.049979378 -0.0576876 0.050159138 0.100581415
0.09347156 0.20472719 -0.046712395 -0.04213 -0.14148048 0.22602634 -0.039702177 0.18614501
0.19205882 0.0063485596 -0.11878456 0.097690545 -0.012424995 -0.06856883 0.07391414 0.2714829
0.19372742 0.17168823 0.093103155 -0.021006102 0.069860116 -0.15805641 0.12711029 -0.289871
-0.0370317 0.07122093 0.10351718 -0.19428985 -0.04034281 -0.16545296 -0.1865421 0.06272744
-0.035510372 0.0592715 -0.011972352 0.14060019 0.038854126 -0.10195478 0.055803347 0.22064096
-0.05703768 -0.1620472 -0.086879976 -0.20259471 -0.03786843 -0.1778671 -0.17238814 0.2322349
0.01597558 0.007035476 0.008964123 -0.23688829 -0.1453003 0.10588581 -0.003110537 0.107436776
-0.14671183 -0.122258484 -0.053181488 0.045236062 0.18241197 -0.05768376 0.08571242 -0.12988542
0.083980404 0.058917746 0.029779823 -0.09734399 0.017441884 -0.012851727 -0.17207801 0.010900655
0.15615413 0.1236744 -0.010427159 -0.108609 -0.12687597 0.08060446 0.13729006 -0.14234
-0.24751133 0.16415894 0.16588084 0.16835421 0.2050334 0.2049206 -0.16869871 -0.17632516
-0.12108127 -0.0588065 -0.04785979 -0.05832746 0.14550419 0.060174618 0.15916991 -0.09914557
0.14855386 0.14772974 -0.18726753 -0.00033241333 0.038946923 -0.12980543 -0.13829982 -0.23431778
0.1953877 -0.030572578 0.03409475 -0.052406974 0.2297463 -0.06478259 0.086548 0.08761165

model/batch_normalization_2/batchnorm/mul_1;model/conv1d_6/Conv1D/Squeeze;model/conv1d_6/BiasAdd;model/conv1d_6/BiasAdd/ReadVariableOp;model/batch_normalization_2/batchnorm/mul;model/conv1d_6/Conv1D;model/conv1d_9/Conv1D f4 [32, 1, 5, 16]
00000000: cd35 1e3e f06e 143e b86e 23bd d90a 9bbe
00000010: 8373 263e 3512 393e 462b 7bbd 2b70 14be
00000020: aa72 743e d64b dcbd 1934 a63c 4838 853e
00000030: 9126 543e 969b 67bc 8b8a 1f3e d1a4 1dbd
00000040: b476 3a3d 5d90 493d e284 ab3e f33c 59be
00000050: b3bb b43d fa2c be3d 6713 9b3e 2779 a93c
00000060: c581 173c 0c91 193e 6882 d1bd 5578 e13e
00000070: ca24 4a3d 93c2 a6be 0abf 9f3e 376c 0cbe
00000080: 0cfa 223d c732 d13d 2baf 0a3e 8887 6a3e
00000090: a97d 23bc ca0c 163d 4e4a 873d 3e1b 8ebe
000000a0: c926 463e 8a33 0b3e 7f0e dc3b 5ace be3e
000000b0: 8257 bd3d c3eb 193c 7de8 8b3e 8c63 59bd
000000c0: 7674 003e 0e3b 00be bb93 bbbe d67d 693e
000000d0: e06b 2bbe d5a7 a3be 4bf2 11bc 2726 c8bd
000000e0: 5a32 54be 4680 97be dcc1 99be cc2f 83bd
000000f0: 9792 683e dc61 f1bc a813 303e 7994 373e
00000100: 1eb3 8d3d 7add cebd bb4a 093d 8e6e 3cbe
00000110: 91d7 b7be 3951 03bd f810 4c3e 7ff4 bcbe
00000120: 3aca 8bbe 69d3 a0be 1d1c f13c b4ac 88bd
00000130: 285f 8ebe 6bf3 e83d 44ae 87bd 72a6 d2ba
00000140: 3e42 8e3d 5263 223e 36d7 a33e 3bf0 963c
00000150: 84a5 c23e e927 fb3c 5130 6abd 6c3d 093e
00000160: 4b35 a63e c6c8 813e 0883 6c3e e2a6 a1be
00000170: 47ff 503d 571b 17be c806 a93e d7a0 6b3e
00000180: 3e3f 56be 23a2 3cbe 3962 67bc d601 6c3e
00000190: 767e b23e ba1c d03b 4c55 ad3e d0e7 b1be
000001a0: e727 a1bd c022 573e 792d 73bd 7a71 1bbe
000001b0: 390c 983d b988 713e 0a0f 8d3e 0a23 96be
000001c0: 96d5 b73d 6f64 38bd 5b8c 0cbe 33c8 703e
000001d0: 01bf b3be 2d28 733e bd14 37be e1a4 9bbd
000001e0: 3987 5abd d6d4 87bc b441 933d 501c b4be
000001f0: ace1 2d3e 8665 27be 7b4c 12bd 3179 83bc
00000200: 97eb ba3d c6f6 67be 3172 1c3e 5515 2ebe
00000210: 9c62 6cbe 74fc 3cbe e1f1 73be ee02 8f3d
00000220: b919 b13e 5696 8dbe 7a30 913d 542e 5bbd
00000230: 3f54 423d 6856 6bbd f803 8f3e 8d4f 2cbd
00000240: 0373 34be 85b5 c33d 0c8f 6d3e fffc bfbe
00000250: f584 a83e 0167 b83d 33c8 07be ee4d a4be
00000260: 265a 84be 0323 9d3e 7033 b1be a48e 203d
00000270: 2bf9 793e 71f5 e83d 7e0f 993e 3695 e8bd
00000280: b930 abbd 4830 37be 11ce aebe e385 f93d
00000290: 9eac 08be 4a3c 803e 0a2d 6b3e c0db f83d
000002a0: 9371 cc3e 9071 343e 55cf 1f3e b266 3c3e
000002b0: 55de eb3d f376 e73d fba2 583e 160d 933e
000002c0: 9291 1bbe 3b33 fc3d 5b17 98be 3520 183e
000002d0: c039 07be 07c0 0f3e 0b04 27be 27d7 8c3e
000002e0: adab 9b3e 057c 7fbd 5537 c03d 7de0 273e
000002f0: 99ff 71be 5902 f7bd d93a 543d ccda 383e
00000300: 7040 233d 5316 d8bd ee14 ec3d 4499 8cbd
00000310: 8dba 8e3e 72f9 9d3d 62dc 0d3d 65bb e73d
00000320: 7c12 123e 2cef 1b3e 98cc 903e 9294 10be
00000330: 494b 903e f69f c83d 0091 78be 5f7c 6b3e
00000340: 7804 80be 6280 e13d 923f 9d3e 4263 d33c
00000350: 6206 42be f5a3 bf3d c036 7abe bd56 7bbe
00000360: fd2f ba3e 116f b4bd c5e2 8abe bd1d 0fbe
00000370: c72f 43bd c84c e0bd c8fd 873e b17d f0bd
00000380: f782 57be e0a5 533e a3a7 533d ae41 93be
00000390: 64f2 bbbe bb56 3a3e 12b8 b1bd 6240 39be
000003a0: d3a3 41be 792d 643c 949b a13d c8b7 6abe
000003b0: 44ad 943e 16e8 043e 5231 ecbd 4c7a 923e
000003c0: 00fe 6ebe 4705 be3d 1dda 393e 13a8 cabd
000003d0: ffcf 5cbe 1f13 95bd d55a f3bc 0fad be3e
000003e0: 42f4 53be 27ab a4bb dd18 eabe fed8 c2be
000003f0: 2673 a7bc f1d5 ea3e 3536 9abe 9d0c 683d
0.15450211 0.14495444 -0.03990051 -0.30281714 0.16255002 0.18073352 -0.061320566 -0.14495914
0.23871866 -0.10756652 0.020288514 0.26019502 0.20717837 -0.014136216 0.15580194 -0.03848726
0.04552336 0.04920994 0.3349982 -0.21214657 0.08824863 0.09285922 0.3028824 0.020687653
0.009247248 0.14996737 -0.10229951 0.4403712 0.04935149 -0.32570323 0.3120044 -0.13713156
0.039789245 0.10214763 0.13543384 0.22903264 -0.00997869 0.03663329 0.06605969 -0.2775516
0.19350733 0.1359388 0.0067155953 0.3726681 0.092452064 0.009394589 0.27325812 -0.05307345
0.12544426 -0.12522528 -0.36636147 0.22801909 -0.1674037 -0.31963983 -0.008907865 -0.09772902
-0.20722333 -0.29590052 -0.30030715 -0.06405601 0.2271217 -0.029465608 0.17194998 0.17927732
0.069189295 -0.10100837 0.033518534 -0.18401548 -0.35906652 -0.03205988 0.19928348 -0.36905286
-0.27302724 -0.31411293 0.02943235 -0.066735655 -0.27806973 0.11374553 -0.066250354 -0.0016071333
0.069462284 0.158582 0.3200013 0.018425098 0.38016903 0.03065868 -0.057174984 0.13402337
0.32462534 0.2534849 0.2309686 -0.31572634 0.0510247 -0.14756523 0.33012986 0.23010574
-0.20922562 -0.18421225 -0.014122539 0.23047575 0.34862107 0.0063510807 0.3385414 -0.3474717
-0.07868939 0.2100935 -0.059369538 -0.15180007 0.07424206 0.23587312 0.27550536 -0.29323608
0.08976285 -0.045017656 -0.13725416 0.2351387 -0.35106662 0.23745795 -0.17879005 -0.075998075
-0.053351615 -0.01658098 0.07190266 -0.3517785 0.16980618 -0.16347322 -0.03571747 -0.016049
0.091269664 -0.2265273 0.15277936 -0.17000325 -0.23084491 -0.18455678 -0.23822738 0.06982981
0.34589937 -0.2765376 0.07089324 -0.05351098 0.047443625 -0.05745545 0.27932715 -0.042068053
-0.17621998 0.095561065 0.231991 -0.37497708 0.32913938 0.090040214 -0.13259964 -0.32090706
-0.25850028 0.30690774 -0.34609556 0.039198533 0.24411456 0.11374939 0.29894632 -0.11356585
-0.083589025 -0.17889512 -0.3414159 0.1218374 -0.13347098 0.25045997 0.229664 0.12151289
0.399304 0.17621446 0.15606435 0.1839855 0.11517016 0.11301985 0.21155922 0.2872092
-0.1519225 0.12314459 -0.2970532 0.14856036 -0.13205624 0.14038096 -0.16310136 0.27507898
0.30404416 -0.062374134 0.09385554 0.16394229 -0.23632659 -0.12060995 0.051813934 0.18052214
0.039856374 -0.10551133 0.115274295 -0.068651706 0.27876702 0.077135935 0.034634 0.113150395
0.14264864 0.15227956 0.28281093 -0.14119175 0.28182438 0.09796135 -0.24274063 0.22996663
-0.2500341 0.11010815 0.30712563 0.025804166 -0.18947747 0.09357444 -0.24434948 -0.24544807
0.36364737 -0.08810247 -0.27126136 -0.13976188 -0.047652986 -0.10952145 0.26560807 -0.11742724
-0.21046053 0.20668745 0.051673543 -0.28761047 -0.36708367 0.18197148 -0.08677687 -0.18090966
-0.1891015 0.013926857 0.07891002 -0.2292167 0.2903844 0.12979159 -0.115328446 0.2860893
-0.23339081 0.0927835 0.1814961 -0.09895339 -0.21563719 -0.07279038 -0.029706398 0.37241408
-0.20698646 -0.0050252858 -0.45722094 -0.38056177 -0.02044065 0.4586635 -0.30119482 0.056652654

model/batch_normalization_3/batchnorm/mul_1;model/conv1d_7/Conv1D/Squeeze;model/conv1d_7/BiasAdd;model/conv1d_7/BiasAdd/ReadVariableOp;model/batch_normalization_3/batchnorm/mul;model/conv1d_7/Conv1D;model/conv1d_9/Conv1D f4 [32, 1, 5, 32]
00000000: 8c61 623d b34e 8cbc bac5 5e3e 9ae7 d9bd
00000010: 2715 293e a4b5 943d 2fd0 643e 2f71 d0bd
00000020: b70b 263e 588f 89bd 63f5 14be 9dfc 9c3c
00000030: 406b f03d c8a0 3abd f9ea 1abe 6ddc 363e
00000040: 0d23 6f3d 2152 b0bc 87bb 173e 9997 8a3d
00000050: ec70 aa3a 61f5 da3c 6650 afb9 b6d5 c5bd
00000060: eacd ab3d 07da 663d e812 b2bd 630f 7cbe
00000070: 08ed 8abd 7649 29bd 17e5 b23c e722 5fbd
00000080: 1f29 f9bd 0891 863d 9b79 fabc 6c3a 233e
00000090: 8f10 29be 86fb 5b3e a092 563e 07d2 db3d
000000a0: fa2a b93d d64d c93d c94a 32be 4fe9 25bd
000000b0: 46a7 a5bd f26a 26bd 2993 ce3d 2918 44bd
000000c0: a4e4 00be c6d9 2cbe 6544 233e e3df 5ebd
000000d0: ec51 e23c b13b 1bbe 73a3 fd3d 2331 2d3e
000000e0: 874e 053e 9d09 613d 12c7 d73c b2e4 dd3d
000000f0: b911 90bd 4c68 dabb 2ad5 f63c 779d dbbd
00000100: 6dea 063e bb44 ad3b 9e5b d53d 15ab 2c3e
00000110: 09a0 1dbe 6c53 97bd d05c 383e 7574 403d
00000120: b7f6 043e c163 6f3d d1df 6abc b2f4 18be
00000130: 73a4 e23d f377 c9bd 0c82 7e3d 1489 a73c
00000140: 0a7c f33c 5a0b d83d c129 42be 1ea7 623e
00000150: 2269 02bc ebcc ecbd 83ea 1e3d fc1a 84bd
00000160: a639 893c d0f0 6b3d 2baa 95bd 740c 673d
00000170: 9e28 91bd 3808 803e ae25 7dbd 6eaa 453d
00000180: 4cdc 1cbe 25b7 9fbd c4e2 29be 3872 eabc
00000190: 431b 2ebe d916 b03d 783b 0abc 423a b0bc
000001a0: 4ade 893c 6e0b a4bd 12d7 f4bd b910 7a3c
000001b0: 1583 0abe c51e c13d 8499 51be e201 40be
000001c0: f594 1a3d 4446 6f3d 3a27 af3d 9b4b e3bd
000001d0: 83c2 a83d a34d 6cbd b582 3cbe 0e5c 0dbe
000001e0: ea96 d03d be17 213e 68e0 6a3d fff3 853e
000001f0: b28e b6bd 20ad b6bd 4e93 aabc 5081 b63d
00000200: 9b69 36be 700f 68bd 4914 cf3d 9774 d63d
00000210: 8766 cbbd e3f8 89be 6095 d33d f8ec 46be
00000220: e883 3bbe 451e 02be 767b 293d bad0 67bc
00000230: 0778 ac3c 62d6 503d 02b3 723b 7dab aabc
00000240: 91a5 67bd 3899 7ebe 2061 163e 1dd9 86be
00000250: 92a5 e9bd 2e17 25be 0679 66bd 8a75 83bd
00000260: 67fe 903c fea0 92bd ca0b 9bbd 1e33 3abe
00000270: ad3e 583c a217 033e e95e 91bd 4c4a 4abe
00000280: 0ab7 5dbd 88f5 3d3e bffd 1c3e 54be 06bd
00000290: 22a8 c1bd fa31 78bc 3d89 0d3e 7a13 72bd
000002a0: e846 80bc cc7a 1e3e a4d6 30be 6b4b 4ebe
000002b0: 59b7 21bc 437c 113d bb5b 1a3d f6ab 563d
000002c0: f13f 303e cd6d 42be 1273 3fbe efb7 103c
000002d0: bd4d f43d f2c3 8a3c 0957 783c 8d74 07be
000002e0: 930f 8b3d 55c3 223e a979 58bd c096 abbd
000002f0: 252f 8d3d 6ebf 513d 1087 9dbd 29e9 863d
00000300: 1d01 713d c066 0ebe 610d fe3c 3cd0 743e
00000310: 5eee 0dbe db05 bebd 3ce0 00be 7112 8abd
00000320: 62b8 953d 1069 f33b f9ee cbbd da56 33bc
00000330: d006 d0bd 8cbe 1abd d513 603e 55c9 a2bd
00000340: ecd0 75bb 3d41 42bd 72f6 78bd b2d3 3cbd
00000350: 82d1 08bd 4c16 3abc 7589 e33b bd3f 54bd
00000360: 2762 c23d 7844 56bc 5724 c73d bc63 403e
00000370: d403 593e f3f5 02be 9c02 e53d f057 d33d
00000380: e11a 0bbe ab7d 32be 6d5e 5dbd 8629 4cbd
00000390: 7388 22be 0b24 6cbd d3d4 33be 0007 463d
000003a0: 2efd 11bd 1bdf 403e b9c0 893e 09bb 193d
000003b0: 315f 993d d26c 143e 0164 7b3c d81c 12be
000003c0: 85d8 40bd 89fb d43c d017 1dbe e72c 823b
000003d0: e334 d33c 5d78 83bd 8053 5b3c ae84 c63d
000003e0: e1b7 1fbe f9b6 1bbe 99b9 523d e88e 383d
000003f0: 10a5 b93d f42e 16bd ffa4 d13b 3e7e 4b3e
0.05526881 -0.01712737 0.21755114 -0.106398776 0.16511975 0.07261208 0.2234504 -0.10177838
0.16215406 -0.06716794 -0.14546733 0.019163424 0.11739206 -0.04556349 -0.15128697 0.17857523
0.058383036 -0.021523537 0.1481763 0.06767196 0.0013003624 0.026728334 -0.00033438503 -0.09659903
0.08388884 0.05636027 -0.08695012 -0.24615245 -0.067834914 -0.041329823 0.021837754 -0.054476645
-0.12166046 0.06570631 -0.030575564 0.15940255 -0.16510223 0.21482667 0.2095437 0.10733419
0.090414 0.09829299 -0.17411341 -0.040505704 -0.080885455 -0.040629335 0.10086662 -0.047874603
-0.1258722 -0.16879949 0.15944059 -0.054412734 0.027626954 -0.15159489 0.12384691 0.16913275
0.13018237 0.05494081 0.026340041 0.10834636 -0.0703463 -0.006665265 0.030130941 -0.107233934
0.13175364 0.0052877343 0.10417865 0.16862138 -0.1539308 -0.07388958 0.18004155 0.046986062
0.12984739 0.058444742 -0.014335589 -0.14937094 0.110665224 -0.098373316 0.06213574 0.020451106
0.029722232 0.1054904 -0.1896124 0.22134063 -0.007959636 -0.115625225 0.038797867 -0.06450459
0.016751122 0.057602704 -0.073078476 0.05640836 -0.07087825 0.2500627 -0.061803512 0.048258238
-0.15318412 -0.07798604 -0.1659041 -0.028618917 -0.17002587 0.08598108 -0.00843703 -0.021512154
0.016829628 -0.080099925 -0.11955084 0.015262776 -0.13526566 0.09429697 -0.20468718 -0.18750718
0.037739713 0.05841662 0.08552404 -0.11098405 0.08240225 -0.057691228 -0.18409236 -0.13804647
0.101850346 0.15731713 0.057342917 0.26162717 -0.08913936 -0.0891974 -0.020822193 0.08911383
-0.17813723 -0.056655347 0.10111291 0.104714565 -0.09931665 -0.26947698 0.103312254 -0.19426334
-0.18312037 -0.1270686 0.041377507 -0.014148885 0.021053327 0.0509857 0.0037032967 -0.020833725
-0.05655438 -0.24863136 0.14685488 -0.2633752 -0.11408533 -0.16122124 -0.05626776 -0.06418903
0.017699433 -0.07159613 -0.07570608 -0.18183562 0.013198537 0.12801984 -0.07098181 -0.19754905
-0.054129638 0.18550694 0.15331171 -0.032896355 -0.09455897 -0.015148634 0.13821883 -0.059100606
-0.01565881 0.15476531 -0.17269379 -0.20145957 -0.009870374 0.035518896 0.037685137 0.05241009
0.17211892 -0.18987198 -0.1869624 0.008832916 0.1192889 0.016939137 0.01515747 -0.13228054
0.0679008 0.15894826 -0.0528504 -0.08378363 0.06893758 0.051207952 -0.07691777 0.065874405
0.058838952 -0.13906384 0.031012239 0.2390756 -0.13860461 -0.092784606 -0.12585539 -0.06741799
0.07310559 0.007428296 -0.0995769 -0.010946 -0.101575494 -0.037779376 0.21882565 -0.07948557
-0.003750856 -0.047425497 -0.060781904 -0.046100326 -0.033402927 -0.011357855 0.0069438764 -0.051818598
0.09491377 -0.013077848 0.09723728 0.18788046 0.21192867 -0.12789135 0.11182138 0.10319507
-0.13584472 -0.17430751 -0.05404513 -0.049844287 -0.15872364 -0.05765156 -0.17561655 0.04834652
-0.03564184 0.18835108 0.26904848 0.037531886 0.074888594 0.14494637 0.015343667 -0.14268816
-0.04708149 0.025998848 -0.15341115 0.003972638 0.025782054 -0.06419442 0.013386607 0.096932754
-0.15597488 -0.15206517 0.05144653 0.04505816 0.09064686 -0.03666587 0.006397843 0.19872376

model/batch_normalization_4/batchnorm/mul_1;model/conv1d_11/Conv1D/Squeeze;model/conv1d_11/BiasAdd;model/conv1d_11/BiasAdd/ReadVariableOp;model/batch_normalization_4/batchnorm/mul;model/conv1d_11/Conv1D;model/conv1d_14/Conv1D f4 [64, 1, 3, 32]
00000000: 96d5 193c a103 9c3d f2ec 3abd f60f 38bd
00000010: aea0 63bc f4fe e3bd 718e 8bbd e84b da3d
00000020: 936c a93d 4fca 3fbd 2445 793d ee6c d73d
00000030: d461 ea3d e8e0 573d 7d95 f3bd a8bc 36bd
00000040: 2f31 863d 1465 9d3c 7843 123d 32a9 98bd
00000050: 94f8 763d a536 393d 5fb2 a2bd dba5 1e3c
00000060: 1a7c 2e3d 08f5 44bc 80d6 523d fcce 90bd
00000070: 8a0a 993d ad03 6fbd b0c4 9d3d 7ca4 173d
00000080: 27c9 cd3c d84c a0bd 9899 d83d 1248 82bc
00000090: 00cb db3d e66c 44bd 30a3 cf3d 09b8 bd3c
000000a0: 3128 6cbb c882 1d3d a9b4 81bd 08ed 94bd
000000b0: 0bf2 9e3d 0873 fe3d d044 0a3e e1e6 6bbd
000000c0: e634 4b3d 0e1d c13d ed86 b8bd b543 f3bc
000000d0: 34e8 18bd 7fd6 d93d 7f1c bf3d 1a25 a6ba
000000e0: 7302 d9bd 2e30 43bc 6929 a63d 5f15 9f3d
000000f0: 88e7 ddbd 2aa1 ca3d c394 893d d803 de3c
00000100: ea34 efbb 23db d5bc 57db 833b 0501 e63d
00000110: f5ac 8b3c 3e3f 66bd 82a7 103e e31d bdbb
00000120: 2ccd 7cbb 5ed4 273e a89c 24bd 7e9d f93d
00000130: 2b56 183e 275d c5bd c688 6f3d 6231 243d
00000140: 8986 f33d 90f7 163d 5586 92bd 585d 83bd
00000150: 6fe8 9d3d e0b3 3c3b e9cd 90bc 6d4d fb3c
00000160: c065 8abd 0b1d 3cbd 884a 51bd 7f65 bebc
00000170: 7065 52bd 5068 c0bd fa35 babd acd1 81bd
00000180: 5156 e03d f2f5 a23d ce83 793e fcb8 873d
00000190: 4f66 d23d fc36 063d 121c b43c c539 2ebe
000001a0: 6fee 52be ca70 033e 01f1 ed3c 5d4e 0e3e
000001b0: 9087 ac3d 3c7d 5a3e 291e d2bd f19e 7bbe
000001c0: ae73 863e 9f3d 3c3c 63c7 33be 0716 723e
000001d0: 05ad bfbc 1c45 3d3e 6faf 8e3e a286 963d
000001e0: b150 a1bd 7704 c93d 7270 4cbc e904 84bd
000001f0: 9067 593e a46a 3ebe 23ba b7bd 06c3 81be
00000200: c374 713d d0ac d03d 22a3 00be cde8 643e
00000210: 0cb1 01bd d79d 1f3e 3046 003e 004c 453e
00000220: 5b36 dc3d d92e 8bbd e558 393e ee9c c73d
00000230: 9697 6dbe 503b a03d 159d e93d 1ba9 b93d
00000240: c686 733d 16e2 743e c724 f9bd 632f b63d
00000250: 811c 213d 4a43 b3bd 8d0a aa3d 4f90 15be
00000260: 89db 3b3d c134 9a3d 9f4e d43d f69f 45bd
00000270: ff97 913d 0822 923b 9acb 423e 6c73 b9bd
00000280: 2eb5 403d 3a0d 06be 11d7 c2bd 9b7d 6d3e
00000290: 566b 81be 066f 833d 9244 d93d 2163 bd3d
000002a0: ade5 5dbe 9cbb 86be b26b 08be b820 b73d
000002b0: c7f8 8a3e cbbc 41be f517 0f3e cee5 8d3d
000002c0: 3719 d83d 9f80 f0bd 326c 6d3e 7fc6 94bd
000002d0: 8397 d6bd 27ce d5bd 5f9e 283d ad72 123e
000002e0: 2e17 72be c5db 84be 1afc 143e 7951 2d3d
000002f0: 17a4 5cbe d26a 30be 347a 0cbd c006 ac3d
00000300: bd34 ccbd 7c79 3d3d 4786 89bd 1dee 763d
00000310: e718 c9bc 68fa 9abe d4d7 be3d d4a2 74bd
00000320: c236 babd 5d62 7bbd 5ed5 1abe 0426 3fbe
00000330: 9d68 c6bc ef20 153e 9a4e 6dbe 97d2 953d
00000340: b1ce 1ebd cc7e 59be e441 86bd dbce d2bd
00000350: cc58 883d 1e23 513e 8941 0cbc d0d6 d63d
00000360: e4e5 34be a50f 0f3d f0a1 503e 959e cfbc
00000370: 8c17 7e3e 046b 23be 6324 043a e6ab 173e
00000380: d5da 82bd a410 053d a894 903c 503a 73be
00000390: de11 2fbe 268b c8bd 51e2 52be db5e ea3d
000003a0: 8fb1 cd3d 63bf 5abe 1018 1dbe f75b 13be
000003b0: 3c46 353e a583 a3be 919b 113e 57e0 5f3b
000003c0: b5a7 b2bd 056f 093d f603 15be c142 423d
000003d0: 4825 9ebe 31dd 3ebe d8a1 c7bc b855 1f3d
000003e0: fd46 a0be 3640 1b3e 5449 1abe e4ae fc3d
000003f0: 6334 593e 0093 33bd a351 73be 6116 913d
0.009389302 0.0761788 -0.045636125 -0.044937097 -0.0138932895 -0.11132613 -0.06814278 0.10659009
0.08272662 -0.046823796 0.060856953 0.105188236 0.114444405 0.05270472 -0.11893747 -0.04461351
0.0655235 0.019213237 0.035708874 -0.074541464 0.060295656 0.04521813 -0.07944178 0.009683098
0.04259882 -0.012021311 0.051474094 -0.07070729 0.07472713 -0.058353115 0.07703531 0.0370221
0.025120331 -0.07827157 0.10576171 -0.015903506 0.107320786 -0.047955416 0.101385474 0.023159044
-0.0036034698 0.0384548 -0.06333286 -0.072717726 0.0776101 0.12424284 0.13502812 -0.05759323
0.049610995 0.0942937 -0.0901011 -0.029695371 -0.03733082 0.10636615 0.09331607 -0.0012675852
-0.1059617 -0.011913342 0.08113367 0.07767748 -0.10835177 0.09894021 0.06717827 0.027101442
-0.007300009 -0.02610547 0.00402395 0.11230663 0.017050246 -0.056212656 0.14126399 -0.005771385
-0.003857444 0.16389605 -0.04018846 0.121882424 0.1487662 -0.09636908 0.058480047 0.040086158
0.11890895 0.036857188 -0.07154528 -0.06414288 0.07710349 0.0028793737 -0.01767631 0.030676568
-0.067576885 -0.045926135 -0.05109647 -0.023241756 -0.05136627 -0.09394896 -0.090923265 -0.0633882
0.109539635 0.079570666 0.24366686 0.0662708 0.1027342 0.03276728 0.021986041 -0.17014225
-0.20598768 0.12835994 0.029045584 0.1389708 0.08424294 0.21336836 -0.10259659 -0.2457235
0.26260132 0.011489301 -0.17556529 0.23641215 -0.023397932 0.18483394 0.2786822 0.07349898
-0.07876719 0.09815305 -0.012477981 -0.06446249 0.21230912 -0.18595368 -0.0897105 -0.25344104
0.058949243 0.10189211 -0.1256223 0.22354431 -0.031662986 0.15587555 0.12526774 0.19267273
0.10752555 -0.06796045 0.18100317 0.09746729 -0.23202357 0.07823813 0.11406914 0.090654574
0.0594547 0.2391437 -0.12165218 0.08895757 0.039333824 -0.08753069 0.08302794 -0.1460583
0.045863662 0.07529593 0.10366558 -0.048248254 0.07109069 0.0044596232 0.1902298 -0.09055218
0.047047786 -0.13090983 -0.09513677 0.23192446 -0.25277203 0.064176604 0.10608782 0.09247423
-0.21669646 -0.2631501 -0.13322333 0.089417875 0.27142927 -0.18919675 0.13973983 0.069285974
0.10551684 -0.117432825 0.23185804 -0.072644226 -0.10478117 -0.10439711 0.04116666 0.14301558
-0.23641655 -0.2594892 0.14549294 0.042314027 -0.2154697 -0.17228249 -0.03429623 0.08399725
-0.099709965 0.046258435 -0.067150645 0.060285676 -0.024548007 -0.3026917 0.0931851 -0.059725598
-0.090924755 -0.061373103 -0.15120456 -0.18666846 -0.024219805 0.14563344 -0.23174515 0.073155575
-0.038771335 -0.21239775 -0.065555364 -0.10293361 0.06657562 0.20423552 -0.008560547 0.10490191
-0.17665821 0.03492703 0.20374274 -0.025344172 0.2481367 -0.15958792 0.00050408224 0.14811668
-0.06389395 0.032486573 0.01764901 -0.23752713 -0.1709666 -0.097921655 -0.20594145 0.114438735
0.10043632 -0.2136207 -0.1534121 -0.1439055 0.17702574 -0.31936374 0.142195 0.0034160817
-0.08723394 0.033553142 -0.14552292 0.047426943 -0.30887818 -0.18639065 -0.024369165 0.038900107
-0.3130416 0.15161213 -0.15067035 0.12338045 0.2121139 -0.043841362 -0.2376161 0.070843466

model/batch_normalization_5/batchnorm/mul_1;model/conv1d_12/Conv1D/Squeeze;model/conv1d_12/BiasAdd;model/conv1d_12/BiasAdd/ReadVariableOp;model/batch_normalization_5/batchnorm/mul;model/conv1d_12/Conv1D;model/conv1d_14/Conv1D f4 [64, 1, 3, 64]
00000000: a466 7c3d 7160 94bd deac 09bd 118b 82bd
00000010: a0e3 203d 65de 6bbc 52f6 31bb c8a0 8d3c
00000020: d422 2abd e65e 943d f3b4 aebd 6ecb 243d
00000030: fd43 693c 99e6 debc 8a7c 6e3d 75ad a23c
00000040: 060d 85bd 5fa6 fc3b 0202 dc3c f189 a53c
00000050: 842e 5c3d 3a1c 2f3c d733 78bd e10f 903d
00000060: 2bc0 753d ee69 8ebc 2c39 81bd d597 a1bd
00000070: 0d47 babd 7138 833c 9ceb 863c bcc3 83bc
00000080: fafc d83c bc4c af3c 5969 853d eb87 59bd
00000090: ef09 02bd 370f 323d 5f95 5c3d 07a8 183d
000000a0: 438a 2ebd 0600 4b3c b3a7 39bc 785d 9a3d
000000b0: dca4 f83d b950 6abd 7dbd e9bc 795c 16bd
000000c0: 763b a7bb 1c39 a1bd ab50 9cbc b6f8 abbd
000000d0: 51ad 39bc 6b28 9abd 8fbc bbbd 4a20 0fbd
000000e0: ee00 233d 041e 883d 9279 84bd 38d0 91bc
000000f0: ebad c8b8 cdd2 1dbd f8b9 84bc 6d25 633c
00000100: 9ab1 37bd 41fd 22bd 4af1 3ebc 2c53 0fbc
00000110: 88a9 d8bc fa19 f5bc 8c42 94bd d3e8 2e3d
00000120: 1226 713d dc46 96bd 106d c03c 7045 123d
00000130: ffdb 9cbd 8b7b 55bd 4715 8d3c 2d81 6dbd
00000140: 7ae5 1abc 1c26 f33b b0f5 03bd 4ddf 8bbb
00000150: 47d2 903d 9e4e 213d 66bb 4b3c ea34 69bd
00000160: 7abe 373d 046f 8e3b 922c c9bc 59e1 3dbd
00000170: c907 153d 9b5b 8b3d c8c8 2fbd efd1 053d
00000180: 39a9 2ebc 497b 76bd 9cdb 34bd 6ff1 a93d
00000190: cd91 92bd 59b5 873d 893d 1dbd c58c b6bd
000001a0: cfc1 bfbb 2838 843d 6b44 693d 3a15 d83b
000001b0: 805d 7abd dacc 79bd 8755 32bb 9f6e 4d3d
000001c0: 4093 9a3d 7c1b f8bc 00d3 ba3c db23 1ebd
000001d0: c64b 6a3b 91f8 cbbd d3a6 0cbd e4ee b63c
000001e0: cbb0 2bbc 103e cbbd dbe3 bbbc d4b8 b63c
000001f0: 06df 52bd f53f 9abd 23b8 3d3d fdbe 2e3a
00000200: 785b dc3c 5ac9 5dbd d9b1 cebc 4e61 85bd
00000210: 4fba 3d3c 1d33 dcbc 05c9 933b dc0b 34bc
00000220: 8ce1 883c aaa9 483d facb 84bd 646f abbb
00000230: 40ee adbd 143c 99bd 34bc ecbc de4a a6bc
00000240: a23e f5ba 5464 463b 5c1b 9abc 3a14 1b3d
00000250: 8316 47bc 7ad8 2d3d ce65 743b 3c33 b1bc
00000260: b558 4bbd e77d 803c 56c3 033d 9770 c53c
00000270: 1055 4bbc cdba b3bc d744 e73c 72dd 463d
00000280: 3c65 c03c 7937 68bd 0d48 493b fb79 593d
00000290: 22fb 85bd 5696 31bd 9833 063d 200c 5a3d
000002a0: f63f 9c3d a135 1e3d cd5a 473d d6b2 0bbd
000002b0: eef8 6d3d 20d1 cebb a702 973d 5d95 f73c
000002c0: 1d19 12bc 315d 233d 8b2c 02bd f376 95bd
000002d0: e1ac e43c cf50 ae3c d173 a93b f89a 273d
000002e0: 504b 4fbd 4ba0 3fbc 5d73 afbc 4fd5 7c3d
000002f0: f93e b1bc 2228 d73c 1f52 0bbd d93c 093d
00000300: 7752 a0bd fa13 f53c 8ec7 723b c94e 9dbd
00000310: 4068 10bc 3ef5 ce3c 1dc7 283d a62c 7ebd
00000320: faa8 4bbd 0a0b 8bbc 689a 373d b0ee eb3c
00000330: 0f32 c73c 7ba3 06bd b3ae c4bc 5740 b23a
00000340: aae3 4a3d b2de b8bc 6fe9 753c e834 68bd
00000350: 4f62 da3b 3923 3fbc ce59 67ba 7ef9 b4bb
00000360: 7c0f 6bbc 0a86 473d a4b6 05bc b6f4 a83c
00000370: 5c4c 8f3d 5fc0 64bd e7ac bb3d ce8b 633d
00000380: 5aa3 01bc 9f29 b6bc 07d7 ab3d 963e a73d
00000390: c82e 893d 6f09 803c 3a41 883c 9658 3c3d
000003a0: a793 7f3d e9f1 88bd 505c 813d 08fd 63bd
000003b0: c67f 86bd ce4e 433d a80c c83b bafe 3dbd
000003c0: 8c96 7d3d e572 933d 818c 6a3b a1eb 2e3c
000003d0: 619f f33c c5e0 9a3d 7dbb 583d e61d 193a
000003e0: c967 1bbd 36d6 223d 3d9a 4ebd 1f0d 1b3c
000003f0: cc37 2abd 3f49 693d e778 153d 30a0 5cbb
0.061621323 -0.07244957 -0.033612125 -0.06374181 0.03927958 -0.014396285 -0.0027154875 0.01728858
-0.04153712 0.07244663 -0.08530607 0.04023307 0.014237401 -0.027209567 0.05822424 0.019858101
-0.06496625 0.0077102627 0.026856426 0.020207377 0.0537553 0.010687882 -0.060596313 0.07034279
0.05999772 -0.017384496 -0.06309733 -0.07890288 -0.09095583 0.016018124 0.01646977 -0.016084544
0.026487816 0.021398894 0.06514234 -0.053108137 -0.031747755 0.04347154 0.05385339 0.03726962
-0.042612325 0.012390142 -0.0113314865 0.07537359 0.121408194 -0.05720589 -0.028532738 -0.036709283
-0.005103524 -0.07872221 -0.019081434 -0.08397047 -0.011332826 -0.0752724 -0.09166824 -0.034942903
0.03979581 0.0664635 -0.064685 -0.017799482 -9.569138e-05 -0.038531113 -0.016201958 0.0138639035
-0.04484711 -0.039792303 -0.0116542075 -0.008747857 -0.026448026 -0.029919613 -0.07239255 0.042702507
0.058874197 -0.07337734 0.023489505 0.035710752 -0.076591484 -0.052119773 0.01722206 -0.05798452
-0.009454126 0.0074203145 -0.032216728 -0.004268563 0.07071357 0.039381616 0.012434816 -0.05693523
0.044859387 0.00434673 -0.024557386 -0.046357486 0.036384378 0.06804582 -0.04291609 0.03267091
-0.010660463 -0.060176168 -0.04415475 0.08298003 -0.071567155 0.06626386 -0.038388763 -0.089135684
-0.005851961 0.064560235 0.056950014 0.0065943273 -0.061124325 -0.060986377 -0.0027211623 0.050154325
0.07547617 -0.030286543 0.02280569 -0.038608413 0.003575073 -0.0995952 -0.034338783 0.022330709
-0.010479162 -0.09923947 -0.022935798 0.02230493 -0.051482223 -0.0753173 0.046318185 0.0006666033
0.026899084 -0.054147102 -0.025231289 -0.065127 0.011580064 -0.026879841 0.0045100474 -0.010989156
0.016709112 0.04898993 -0.06484218 -0.0052317847 -0.08492708 -0.07482162 -0.028898336 -0.020299371
-0.0018710683 0.0030272203 -0.018811874 0.037861086 -0.012151363 0.042442776 0.0037292126 -0.021630876
-0.049645144 0.015685035 0.03216871 0.024101539 -0.012410417 -0.02193966 0.028231068 0.04855103
0.023485772 -0.056693528 0.0030713112 0.053094845 -0.065420404 -0.043356262 0.032764047 0.05323422
0.07629387 0.038625363 0.04867058 -0.034106098 0.058098726 -0.0063115507 0.07373553 0.03022259
-0.00891712 0.039883796 -0.03178076 -0.072980784 0.027914466 0.021278767 0.005171277 0.040919274
-0.050608933 -0.011695932 -0.021417314 0.061726864 -0.021636473 0.026264254 -0.034013864 0.033505294
-0.07828229 0.029916752 0.0037045213 -0.07681043 -0.008813918 0.025263425 0.041205514 -0.0620543
-0.049721695 -0.016973037 0.044824988 0.028800339 0.024315862 -0.03287075 -0.024009084 0.0013599497
0.049533524 -0.022567127 0.015009268 -0.05669108 0.0066645513 -0.011666113 -0.00088253326 -0.005522906
-0.0143469535 0.048711814 -0.008161221 0.0206245 0.06996986 -0.055847522 0.09163838 0.05555325
-0.007912481 -0.022236643 0.083906226 0.08166234 0.06698376 0.015629498 0.016632665 0.04598292
0.06239667 -0.06686766 0.06316435 -0.05566123 -0.065673396 0.047682576 0.0061050244 -0.046385504
0.06191115 0.07199649 0.0035789313 0.0106762955 0.029739084 0.07562403 0.052913178 0.0005840942
-0.037940774 0.03975507 -0.05044006 0.0094635775 -0.04155712 0.05695462 0.036492255 -0.0033664815

model/conv1d/BiasAdd/ReadVariableOp f4 [16]
00000000: 2092 203a ebed fb3c a72e 24bd a569 edbc
00000010: c6b6 773c f51b 363d ea65 babd 1e39 b5bc
00000020: 4ac9 d6bc 6ece ccbc e4a1 5abd 5a71 03bd
00000030: 144a 973d ea8d 08bd 08e2 92bd e5e6 70bd
0.000612529 0.030753097 -0.040083554 -0.02898104 0.01511926 0.044460256 -0.0910147 -0.022121962
-0.026219029 -0.025000777 -0.053377047 -0.032090522 0.07387176 -0.033338465 -0.07172018 -0.05881395

model/conv1d_5/BiasAdd/ReadVariableOp f4 [32]
00000000: eef9 0f3d 10a1 b8bb 75af 88bd c018 aa3c
00000010: 9cbb aebc 889f 7a3c 1050 cbbd 7320 8ebc
00000020: cb0d 0f3d 11ab 66bc 07e0 34bd 523e 74bc
00000030: ebc7 66bc 993e 48bb 2e3c df3c 8dd0 e73c
00000040: dbba 5c3d 8199 933c 275b 7b3d 6b8f 42bd
00000050: 55d5 aaba ba2d 243c 98ac b0bc 788f ca3b
00000060: 1065 a73c 8b74 d2bc 672d 683c d834 b9bc
00000070: 0232 973c 518f 01bc 6483 f43b fbed aa3d
0.03515046 -0.0056344345 -0.06674091 0.020763755 -0.021329693 0.015296824 -0.0992738 -0.017349457
0.034925263 -0.014078871 -0.04415896 -0.014907436 -0.01408575 -0.003055489 0.027250376 0.028297687
0.053889137 0.018017532 0.061366227 -0.047500055 -0.0013033549 0.010020668 -0.021566674 0.0061816536
0.020433933 -0.025690338 0.014170981 -0.022608206 0.018456463 -0.007907704 0.007461952 0.083461724

model/conv1d_10/BiasAdd/ReadVariableOp f4 [64]
00000000: 23e1 e03a 1b80 69bc 4f49 233c 715e 06bd
00000010: 13c7 a5bc 01c7 a5bc 9021 d53b e2a0 58bd
00000020: a8e9 f9bc c4f5 db3c 2ed6 efbc 35f6 d3bc
00000030: 1591 25bd c9df 7dbc e825 8e3d 5c81 4c3c
00000040: 4502 33bc c461 abbc 5560 483b f32d 86bc
00000050: 6b23 25bd 1262 943b 6349 513d 7a69 6b3d
00000060: f859 3bba e80c b2bb 3368 32bd bddd 563c
00000070: fae8 2fbc a813 c6ba be7c adbc 41e6 003d
00000080: e6d7 f43b 264c 833c dced cfbb e1be d9bb
00000090: 4cda 2e3c 3b3c 463d 5aa8 cf3b 828c 8d3c
000000a0: 6c66 06bd e079 8e3c 4177 20bd 9e9d 09bd
000000b0: c1b1 d2bb 3e11 91bc b3fc 02bc d5cd fb3c
000000c0: 7444 1ebc bc03 00bc 7d31 b0bd 5922 03bd
000000d0: 0578 f9ba 5a5c 483c f00f cabc 4ff0 cabc
000000e0: 1859 9abc 4264 f0bc ee4b 22bd d8e2 eebc
000000f0: 7c9c 633d 807b a53c df7b 053d e04e 57bc
0.001715694 -0.014251734 0.009966209 -0.03280491 -0.020236528 -0.020236494 0.006504245 -0.052887805
-0.030506924 0.026850589 -0.029276934 -0.025874237 -0.040421564 -0.015495249 0.06940824 0.012482014
-0.010925834 -0.020920642 0.0030574996 -0.016379332 -0.04031698 0.0045282925 0.051095378 0.057473637
-0.000714689 -0.0054336675 -0.043556403 0.01311439 -0.010736698 -0.0015112059 -0.021177646 0.031469587
0.007472026 0.016027521 -0.0063454937 -0.006645069 0.010672163 0.048397284 0.0063372077 0.017278913
-0.03281252 0.017392099 -0.03917623 -0.03359758 -0.0064298813 -0.017708417 -0.0079948185 0.030737797
-0.009659875 -0.00781339 -0.08603189 -0.03201518 -0.0019032961 0.01222905 -0.024665803 -0.024772791
-0.018841311 -0.029344682 -0.039623193 -0.029160902 0.055569157 0.020200491 0.032588836 -0.013141364

model/conv1d_15/BiasAdd/ReadVariableOp f4 [128]
00000000: a268 6d3b 4313 783c 8ba1 87bc cb3e 15bb
00000010: 7a43 503c 3055 daba d105 b6bc ab28 0abe
00000020: 632f 03bb 9983 43be 90ff 9f3c 6e7f 943c
00000030: 254f 1b3c 39e6 0d3d e132 ee3b e2a2 443c
00000040: deb6 153c 67a2 babc 8a56 14bd 3dad 483c
00000050: 12ec 4bbd 0515 ffbc 306c 37bd b919 c1bc
00000060: a499 3bbc 78b2 803b aaae a2bc 3cc8 02bc
00000070: 6ae6 54bc 93cd bd3c 577a 1e3d 4e2c 01bd
00000080: cee3 c53c 5ed5 5bbd 7fd6 b4bc ad2e 07bd
00000090: 08cd 7abc 5a84 ed3a 6394 673d b564 503c
000000a0: 1fcc 2c3d de59 343b 840f 23bb caeb 9e3c
000000b0: bd92 a2bc f866 9b3b 574b 1abc 9317 5b3c
000000c0: c77f 95bc cd6f 1c3c 633c 40bd 9cb7 48bd
000000d0: 1c27 3fbc 083d 2bbc 4120 ca3a 6d40 c83c
000000e0: 0d2d 06bc 67fc d43c fed5 50bd 5fe1 f8bb
000000f0: 48fd b5bc 2581 36bc d13b e43b 9b2e 3dbd
00000100: 0922 94bc f50d d13c 5f50 07bd 8693 c63b
00000110: 1925 523d 0db2 adbc da7b 933a 3844 3ebd
00000120: d9b0 93bd 6d76 af3d 5f9b cd3c ebb6 0a3d
00000130: 79e5 2b3b e06c c6bb f5ae cc3a d6c4 e73b
00000140: 6ea9 3b3d b056 ff3c 8cf9 b03d f0c5 fbbc
00000150: e527 fa3b 2701 9dbc 375b 98bc 68b8 e83b
00000160: 2263 8f3d 890f bfbd 5f0d 44bc e94d 233c
00000170: 5695 533d f46f 81bb 66ef 5abb 5823 c93c
00000180: 665d 84bc 830a 823c fa54 11bc dff2 803c
00000190: 65ce 03bc 1830 2dbd 2e61 86bc 545b 0f3a
000001a0: 4c08 133d da43 01bc 7acd 9cbb c887 073b
000001b0: 2d5d 6b3b c23b 7cbd e08f d73c 61c2 82bb
000001c0: 0dd6 b8bc e2f4 983b 910f f0bc b112 5f3c
000001d0: 024e 99bd b91c 11bc 792e 6c3b 31af 80bc
000001e0: 5f29 f53c 1b6a 77bd 3e96 95bc dcb7 adb9
000001f0: 2cf8 dbbb 7703 d4ba 9822 313c 3979 cb3c
0.0036225696 0.015141311 -0.016556522 -0.0022773023 0.0127114 -0.0016657468 -0.02221957 -0.13492076
-0.0020017258 -0.1909317 0.019531041 0.01812717 0.009479319 0.034643386 0.007269249 0.012001725
0.009137837 -0.022782518 -0.036215343 0.0122483345 -0.04978568 -0.031137953 -0.04478091 -0.023571836
-0.011450205 0.003927525 -0.019858677 -0.00798231 -0.012994388 0.023169314 0.03869089 -0.031536393
0.024156477 -0.05367028 -0.022074936 -0.033003498 -0.015307672 0.0018121109 0.056537997 0.012719323
0.042186853 0.0027519385 -0.0024881074 0.019399542 -0.01984536 0.0047424994 -0.0094173765 0.01337232
-0.018249406 0.00954814 -0.04693259 -0.04900323 -0.011667039 -0.010451563 0.0015420989 0.024444783
-0.008189452 0.025999261 -0.05098533 -0.0075952257 -0.0222155 -0.011139189 0.0069651385 -0.046187025
-0.018082635 0.02551935 -0.033035632 0.0060600666 0.05130491 -0.021203065 0.0011252121 -0.046451777
-0.072114654 0.0856751 0.0250985 0.03386585 0.0026229306 -0.0060554594 0.0015616106 0.007073025
0.045815878 0.031169266 0.08641347 -0.030734032 0.0076341503 -0.019165589 -0.018598182 0.007102061
0.0700133 -0.09329135 -0.011966079 0.009967306 0.05165609 -0.0039501134 -0.0033406853 0.024552986
-0.016157817 0.015874153 -0.008870358 0.01574081 -0.008044814 -0.042282194 -0.01640376 0.0005468626
0.035896584 -0.007889712 -0.004785237 0.0020680297 0.0035913691 -0.061580427 0.026313722 -0.003990457
-0.022563005 0.004667864 -0.029304298 0.013615296 -0.07485582 -0.008856946 0.0036038442 -0.015708538
0.029926954 -0.060403924 -0.018260118 -0.00033134117 -0.006712934 -0.0016175349 0.01081147 0.024838077

model/conv1d_4/Conv1D f4 [16]
00000000: 0000 0000 0000 0000 0000 0000 0000 0000
00000010: 0000 0000 0000 0000 0000 0000 0000 0000
00000020: 0000 0000 0000 0000 0000 0000 0000 0000
00000030: 0000 0000 0000 0000 0000 0000 0000 0000
0.0 0.0 0.0 0.0 0.0 0.0 0.0 0.0
0.0 0.0 0.0 0.0 0.0 0.0 0.0 0.0

model/conv1d/Conv1D f4 [16, 1, 1, 1]
00000000: 2d0a 9cbd 7cb6 fabe 66f3 b33e 6d7c 05bf
00000010: 6a97 003f 39e0 5ebe 78b3 a93e 05bc dd3e
00000020: f9f7 b03e 4ab3 15bf afb7 103f fead 313b
00000030: 6ced 9ebe 3283 3c3e 854a 0c3f 44a6 ddbc
-0.076191284 -0.4896735 0.35146636 -0.52142984 0.5023104 -0.21765222 0.33144736 0.4330751
0.34564188 -0.584767 0.5653028 0.0027111764 -0.31040514 0.18409422 0.5480121 -0.02705682

model/conv1d_3/Conv1D1 f4 [1, 1, 1, 16]
00000000: 1886 143f 8a14 173e 9247 7d3c aac5 1a3f
00000010: a322 ad3e ed14 643e 2724 183f ab13 58be
00000020: b5f7 2dbe 4421 1e3e f705 2c3e dfcd c73e
00000030: 9fac 673e d7f4 cd3e 127e c3be b15b 323e
0.5801711 0.14753929 0.015458958 0.6045786 0.33815488 0.22273608 0.59430164 -0.21101253
-0.16989024 0.15442377 0.1679915 0.39024255 0.22624443 0.4022586 -0.38182122 0.1741779

model/conv1d_4/Conv1D1 f4 [16, 1, 1, 1]
00000000: ca2f 4f3e 0d77 0240 8c72 1f40 737a 0dc0
00000010: 69cc 1f3c 0d26 f93e 53c6 1dc0 2fd9 2740
00000020: d705 1b40 0873 933f 0d60 4c3f 5e7e cfbf
00000030: e5fd 353e 038f 3b40 74cb 1ebf d87c 21c0
0.20233074 2.0385163 2.4913664 -2.2105987 0.009753325 0.48661843 -2.4652297 2.6226308
2.4222314 1.151948 0.7983406 -1.6210439 0.17772634 2.9306037 -0.62029195 -2.5232449

model/conv1d_9/Conv1D f4 [32]
00000000: 0000 0000 0000 0000 0000 0000 0000 0000
00000010: 0000 0000 0000 0000 0000 0000 0000 0000
00000020: 0000 0000 0000 0000 0000 0000 0000 0000
00000030: 0000 0000 0000 0000 0000 0000 0000 0000
00000040: 0000 0000 0000 0000 0000 0000 0000 0000
00000050: 0000 0000 0000 0000 0000 0000 0000 0000
00000060: 0000 0000 0000 0000 0000 0000 0000 0000
00000070: 0000 0000 0000 0000 0000 0000 0000 0000
0.0 0.0 0.0 0.0 0.0 0.0 0.0 0.0
0.0 0.0 0.0 0.0 0.0 0.0 0.0 0.0
0.0 0.0 0.0 0.0 0.0 0.0 0.0 0.0
0.0 0.0 0.0 0.0 0.0 0.0 0.0 0.0
