modelo1/tflite-model/tflite_learn_839509_110.tflite (tflite, 507200 bytes, 6 tensors)

sequential/dense_1/BiasAdd/ReadVariableOp f4 [32]
000000 11 e4 14 be 18 cb f0 bc 3a 3c a8 bd a8 24 22 bd
       -0.14540125 -0.029393718 -0.08214612 -0.03958574
000010 fe ae 8d bd 78 87 8a 3b f6 32 78 bd 21 67 07 3e
       -0.06918143 0.004227575 -0.060595475 0.13222934
000020 1c 04 8a bd 51 95 75 bd d6 e4 9e 3d 49 e5 1b bd
       -0.06739065 -0.059956852 0.07758491 -0.03806046
000030 29 05 a4 3b 7b 33 36 be b2 da 97 3d 64 f8 b0 bd
       0.005005498 -0.17793076 0.0741476 -0.08641127
000040 96 47 81 bd b4 ce e4 bd ce 6f 12 be 61 e9 29 bd
       -0.06312482 -0.11172238 -0.14300463 -0.041482333
000050 44 19 88 3d 99 4f e6 bd 32 33 27 3d 61 46 86 bd
       0.06645444 -0.11245651 0.040820308 -0.065563925
000060 c1 88 df 3d 0d d8 8a bd d7 12 f4 bd dd 7d b9 3c
       0.109147556 -0.0677949 -0.11917656 0.022643024
000070 d4 f1 bd bd 79 3b 8a 3d 03 1d 0c 3e 2a 63 a7 3c
       -0.09274641 0.06749625 0.13682942 0.020433027

sequential/dense/BiasAdd/ReadVariableOp f4 [128]
000000 67 48 b4 bd 7b bf ee bd 2c 22 2b 3c 87 6f b1 bc
       -0.08802872 -0.11657616 0.010445159 -0.021659626
000010 c6 d6 11 3e 16 bd fc 3d e4 08 98 bd 52 ed bc bd
       0.14242086 0.12340753 -0.07423571 -0.09224953
000020 74 23 cd bc a8 32 b5 bd b0 74 bb 3d f4 32 41 bd
       -0.02504132 -0.088475525 0.09153116 -0.047167733
000030 9b b4 89 3c a5 ed 6d bd fd 6f e8 3d 2c aa 57 3d
       0.016809752 -0.058087964 0.11349485 0.052652523
000040 bf 7e 29 bd 18 ba 7a ba fc 28 22 bd d9 11 26 3c
       -0.04138064 -0.00095644733 -0.039589867 0.010136091
000050 fd 41 08 be d4 9d 98 bd 00 69 bd bd cf b9 b8 3b
       -0.13306423 -0.07451978 -0.09248543 0.0056373845
000060 4b f9 9d bd ee e5 17 bd 7e 5a dc bd f6 a1 e5 bd
       -0.077135645 -0.037084512 -0.107594475 -0.11212532
000070 0b ce e0 bd ca ae bc bd aa 41 f3 bb 8c 76 15 3c
       -0.109767996 -0.09213026 -0.0074235993 0.009122502
000080 c6 e1 3c 3e 2b c2 88 bd bc 8f 8f bd c0 67 8f 3c
       0.184455 -0.066776596 -0.07009837 0.017505527
000090 9b b5 8e bd c9 87 bd bb 27 ef b1 bd 02 c0 1f be
       -0.06968232 -0.005784009 -0.08688193 -0.15600589
0000a0 9e cc 57 3d 5a 84 aa bd 51 7d d7 bd ce 76 ad bd
       0.052685373 -0.08326025 -0.10521949 -0.08469926
0000b0 00 ab 85 3d f9 88 11 be 79 ce d1 bd 34 72 a9 bc
       0.06526756 -0.14212407 -0.1024446 -0.02068434
0000c0 c7 c0 c1 3d 68 eb 02 3d d4 44 b9 bd 1c 0f f4 bd
       0.094605975 0.031962782 -0.09046331 -0.119169444
0000d0 85 b2 02 be 84 ab 9c bd 29 99 2a bd 00 08 b5 bd
       -0.12763412 -0.076499015 -0.04164997 -0.088394165
0000e0 6d e9 00 be 5e 2b d1 bd 0a 71 3c bd 81 08 92 bd
       -0.12589045 -0.1021335 -0.04600624 -0.07130528
0000f0 5c 57 d8 bc be bf bf bd 01 a3 be bc c4 24 f1 bd
       -0.026408844 -0.09362744 -0.023271086 -0.117745906
000100 bf 53 0d be 18 82 4e 3d c8 dc 10 3d 3e a0 1c be
       -0.13801478 0.050417036 0.035366803 -0.15295503
000110 31 15 59 3d 44 e7 85 bb 4d c6 18 bd e8 2b 3b bc
       0.052998725 -0.004086407 -0.03729849 -0.011424042
000120 b7 ae 1d bc 01 5a 56 bd 70 56 02 3e 63 b3 00 be
       -0.009624175 -0.05233193 0.12728286 -0.1256843
000130 95 1f c5 bd dd 52 10 be 7c bc a5 bd d4 13 96 3d
       -0.096251644 -0.1409411 -0.08092591 0.07328001
000140 be 69 9a bd 65 84 df bc 75 62 2f bd 20 11 be bd
       -0.075397 -0.02728481 -0.042818505 -0.0928061
000150 49 57 0b be 55 3a 02 be 68 96 30 3d 01 00 a4 bc
       -0.13607515 -0.12717564 0.04311219 -0.020019533
000160 a9 70 d8 3b d3 08 c9 bd 10 9d b3 bd c4 d9 11 3c
       0.006605227 -0.09816136 -0.08770192 0.008902017
000170 f4 e5 03 3e fb 7f a0 bc 1f 50 d1 bc 8d f5 58 3c
       0.12880689 -0.019592276 -0.0255509 0.013242138
000180 82 73 8f 3c e2 6e 15 bd b0 a9 1d bd fc 78 32 be
       0.017511133 -0.0364827 -0.038491905 -0.17428964
000190 39 b3 dd bd 8c 72 8f 3c a5 37 26 3d 76 f3 2d be
       -0.108252 0.017510675 0.04058041 -0.16987404
0001a0 de 1d 80 bd a3 15 d7 bd 84 ab be 3d 2b 60 e4 bc
       -0.06255697 -0.10502174 0.09310058 -0.027877888
0001b0 f4 9a c6 3d 29 df 1a be 2d dd 32 bd 1c 92 9f bc
       0.09697524 -0.15124191 -0.04366796 -0.01947885
0001c0 e4 d2 a2 bc 7a 3f b6 3d 1b 24 5e bc 51 2e bc bc
       -0.019875951 0.08898826 -0.013558413 -0.022971304
0001d0 65 57 f7 bd ad f0 18 be 95 9d bf bb 0a 1b 7c bc
       -0.12077216 -0.1493556 -0.0058476427 -0.015387306
0001e0 05 40 e3 bb 98 08 2d be 61 0d 01 be 52 bd c0 3d
       -0.006935122 -0.1689781 -0.1260276 0.0941111
0001f0 b2 9d d6 bd 7e a3 5b be 2d 77 98 bd 15 42 ed bc
       -0.10479297 -0.21449086 -0.07444606 -0.028962174

sequential/y_pred/BiasAdd/ReadVariableOp f4 [2]
000000 b9 16 cb bd b9 16 cb 3d
       -0.099164434 0.099164434

sequential/dense/MatMul f4 [128, 953]
000000 21 05 a9 3d 4a 0f 24 bd 04 57 11 3e 8d e3 e2 3c
       0.082529314 -0.040053643 0.1419335 0.027696395
000010 3a 74 9a 3c 2f 0b 24 3d 6a a2 68 bd da 48 15 bd
       0.01885425 0.040049728 -0.056795515 -0.03644643
000020 71 b9 f4 3c 68 7b 3b bc 6e c7 0b bd 8f b7 51 bd
       0.029873582 -0.011442997 -0.034125738 -0.051200446
000030 41 c5 81 bd 09 d3 9f bd 57 c4 a2 3c 9d a6 10 3d
       -0.06336451 -0.07803924 0.019869013 0.035315145
000040 29 d2 8c bd 72 43 89 bd 0c 9c 60 bd cc 52 4d bd
       -0.06876022 -0.06702317 -0.054836318 -0.05012779
000050 cb c6 6e 3b c3 6c de bd ed 1c 34 3c 1b d9 2b bd
       0.0036434408 -0.108605884 0.010993225 -0.041955095
000060 9e e8 f9 bc 39 0e 5c bd fc e9 10 be 55 de 94 bc
       -0.030506428 -0.0537245 -0.14151758 -0.018172422
000070 79 b6 d1 bc 30 53 ed bd 23 f3 63 bd 6a cf 0c be
       -0.025599705 -0.115881324 -0.055651795 -0.13750997
000080 85 88 9a bc 2a c7 1a bd ef d6 f6 bd 8e 70 bc bc
       -0.018863926 -0.037787594 -0.12052714 -0.023002889
000090 75 46 d4 bc 32 98 72 3c 5e 3e 01 be 54 28 96 bb
       -0.025912503 0.014806794 -0.12621447 -0.004582444
0000a0 0e da 28 bd 07 45 49 bd 54 8d ea bd 18 05 8f bd
       -0.04122358 -0.049138095 -0.114527375 -0.069833934
0000b0 9b 8b a6 bd 17 e8 b5 bd 2f 00 61 bd 54 a7 36 3d
       -0.081320964 -0.08882158 -0.054931816 0.04459317
0000c0 4d 33 db 3b fe c0 dc 3b e4 ae 64 3c b2 e0 bf bd
       0.006689465 0.0067368736 0.013957713 -0.09369029
0000d0 b1 02 93 bd 7c 19 0e bc 30 98 28 bd 69 36 e6 bd
       -0.07178248 -0.008673068 -0.041160762 -0.11240847
0000e0 7f 26 f5 bd fa 9b cc bd fc 80 9b bd 97 1e 31 bd
       -0.11970233 -0.09990688 -0.07592961 -0.043242063
0000f0 8f 5a 9d 3c a5 60 e6 bc c4 87 2b bd 0d 33 9b 3a
       0.01920822 -0.028122256 -0.041877523 0.0011840776
000100 87 c8 cf 3c 0d bc a2 3d f8 b1 f5 bc f4 0c ab 3d
       0.025364174 0.07946024 -0.029992089 0.0835208
000110 ab 9f 93 3d 3d 2c 78 bd a3 e1 06 bd dd 38 27 bc
       0.072081886 -0.060589064 -0.032930028 -0.010206428
000120 cc a6 86 3c e1 6e d9 3c a0 4b db 3d 4e 88 a9 3d
       0.016436957 0.026542129 0.10707784 0.08277951
000130 e4 78 ee 3c aa 30 2e bc 75 33 8c 3d 62 53 2f 39
       0.02911038 -0.01063172 0.06845752 0.00016720363
000140 4d 44 f6 3b 04 ce ac bb b6 7e 39 3d b9 b9 65 bc
       0.0075154663 -0.0052735824 0.045286857 -0.0140213305
000150 d6 b6 d6 bb 93 e6 32 3d e0 f3 07 3d f3 3a 9d 3d
       -0.0065525575 0.043676924 0.03319156 0.07677259
000160 95 48 97 3b b1 8f ca 3b 2e 2f a1 3d a4 9b 4e bd
       0.0046168067 0.00618168 0.07870327 -0.0504414
000170 1c 1a f3 3c ce 76 6f 3d c8 28 9d 3d 5c f4 a0 3d
       0.029675536 0.05846291 0.07673794 0.07859108
000180 59 2e b7 3d c9 d1 9d bb 78 59 52 3d e3 76 05 bd
       0.08944387 -0.004816268 0.051354855 -0.032584082
000190 25 cc 60 3c ff b1 ba 3d 0b 4b 51 3d 49 46 52 3d
       0.013720547 0.09115981 0.051096957 0.05133656
0001a0 b5 68 e7 bc 1e 34 7d 3a 3b 6e 6d 3d a7 e3 d4 bc
       -0.02824817 0.000965895 0.057966452 -0.02598746
0001b0 04 e4 09 bd 3f d0 ae 3d 39 76 4c bd 83 b0 34 bc
       -0.03366472 0.085358135 -0.049917433 -0.011028412
0001c0 d8 40 36 bc 6c 44 95 3c 5d b4 2d 3c 28 61 a8 3d
       -0.011123858 0.018221103 0.010602084 0.08221656
0001d0 0f 5f 5e 3d da e0 3e bc 92 69 d9 3c 10 85 7c 3d
       0.054289874 -0.0116502885 0.026539598 0.061650336
0001e0 61 70 21 bd db a2 c7 bc 17 97 80 3c 99 94 9d 3d
       -0.039413814 -0.024369648 0.015697045 0.076943584
0001f0 a6 3e 8c 3b 4e c3 3c bd c7 d1 4d bc 99 c3 cb bc
       0.004279929 -0.046084695 -0.012562222 -0.024873542
000200 3c a1 6a 3d d8 95 f4 3c 8b aa 58 3d 7c eb 32 bd
       0.05728267 0.029856607 0.052897017 -0.043681607
000210 e5 3b ac 3d 78 e3 27 bc e8 49 41 3d 99 64 be bc
       0.084098615 -0.010247104 0.047189623 -0.023241328
000220 88 c1 e3 bc 28 21 82 bb fa a7 81 bb d8 ea 4c 3b
       -0.027802244 -0.0039712377 -0.003956792 0.0031267907
000230 92 b9 ee b6 f9 1f 7e 3d 71 4a 45 3d 33 82 d9 bb
       -7.114556e-06 0.06204221 0.048166696 -0.0066378354
000240 e8 bd 60 bd 61 ba b7 3d a6 c6 c4 3c 14 ae 5f bd
       -0.05486861 0.08971096 0.024020504 -0.054609373
000250 96 04 9c bc 89 06 fd bc d3 3d 17 3d 07 c4 ac 3c
       -0.019045155 -0.030886905 0.036924195 0.021089567
000260 89 31 8a 3d 05 b5 e3 bc f9 74 21 bd 2e 52 7e bc
       0.06747729 -0.027796278 -0.039418194 -0.015522523
000270 0e b0 7b 3d d6 1c 69 3b a6 7b d9 bc 16 92 6d bc
       0.061447196 0.0035570166 -0.026548218 -0.014500162
000280 a1 05 54 bd 71 f1 aa 3c d3 af dc ba 82 d3 01 bd
       -0.05176318 0.020867081 -0.0016837068 -0.03169585
000290 75 be 18 3d 2b 12 8c 3d 0f 02 e8 3c d8 60 eb 3c
       0.03729101 0.06839403 0.028321294 0.028732702
0002a0 f0 6c 47 3d c7 9a c0 3c 45 44 52 3c fd 9c ca bc
       0.048687875 0.023511304 0.01283366 -0.024733061
0002b0 1e 78 1c bd 04 16 dc bc 70 f8 6a bd 28 46 46 bd
       -0.03820049 -0.026865967 -0.057365835 -0.04840675
0002c0 b1 0c 33 3d 4a 63 83 3d 0c 17 08 3d cf 9c 8a bc
       0.043713275 0.06415422 0.033225104 -0.016920475
0002d0 5c 84 2e bd 32 37 06 bd 5b 4a 2f 39 53 c1 56 bc
       -0.042606696 -0.032767482 0.00016717 -0.0131076155
0002e0 8d d7 bc bc 1d d1 90 3d 08 58 33 3d 3f c1 b7 3c
       -0.023052001 0.07071135 0.043785125 0.022431014
0002f0 b4 7d 2a 3d 5a 3b 64 bb 10 06 91 3a 62 0f 62 3d
       0.041623786 -0.0034825415 0.0011064429 0.05519045
000300 81 da 3d bb ca a8 3f bd 5c fe b7 3d 13 2b fc 3c
       -0.002896935 -0.04679183 0.08984062 0.030782258
000310 74 de a1 3d 98 b7 80 3d 78 cf 8d 3d 4d 07 9d 3d
       0.07903758 0.06285018 0.06924337 0.07667408
000320 45 66 58 3d 74 66 51 bc 1a 4d 9f 3d 5f 0e 08 bd
       0.052831907 -0.012780774 0.07778378 -0.03321683
000330 4d 1f 54 3d 16 c5 13 bd 35 ea 1e 3d 47 97 db 3c
       0.051787663 -0.036076628 0.038797576 0.026805533
000340 25 af 05 bd f8 c2 ba 3d cc 94 c4 3d 96 55 59 3d
       -0.032637734 0.091192186 0.09598693 0.053060137
000350 18 04 81 3c ef 2c e6 3c 28 60 85 bc a2 8e 85 3d
       0.015749022 0.028097598 -0.016281202 0.06521346
000360 5c 5a 7f 3d 07 5f 68 3c b0 a2 b7 3d 33 15 a6 3d
       0.062342033 0.0141828125 0.08966577 0.08109512
000370 96 c6 86 3c 99 64 1d bd 1d 91 be 3d 95 98 f9 3c
       0.016452115 -0.038426016 0.09305022 0.030468265
000380 c9 ed a0 bc ff f7 82 3d f7 a5 8a 3d 18 b4 1e 3d
       -0.019644635 0.06394958 0.067699365 0.03874597
000390 c7 d8 29 bc 39 74 15 3d df 49 14 3d b4 6a 62 bb
       -0.010366625 0.03648779 0.03620326 -0.0034548463
0003a0 ad da a5 3d 41 99 49 3c 86 3a b6 3c 88 c5 c3 bb
       0.0809835 0.012304605 0.022244703 -0.0059744753
0003b0 20 f9 b2 3d 83 bd 57 3d 0b 52 9f 3d 64 8e 77 3c
       0.08738923 0.052670967 0.0777932 0.015109632
0003c0 23 d2 5b b9 d9 72 b5 3d 27 5c a5 3c ef ad d4 bc
       -0.0002096375 0.08859796 0.020185543 -0.025961844
0003d0 28 4b 31 bd 15 47 96 3d 28 5f 64 bd b1 f3 81 3d
       -0.043284565 0.073377766 -0.05575481 0.063453086
0003e0 c0 aa 52 3d c7 a9 42 3d f6 0a 8e 3d e4 7b a8 bc
       0.05143237 0.047525194 0.069356844 -0.020566888
0003f0 a0 86 71 bd 68 98 97 3d ca d0 97 3c cb 99 54 3d
       -0.05896628 0.07402116 0.018532176 0.05190448

sequential/dense_1/MatMul f4 [32, 128]
000000 c6 c9 c7 3c 3c 68 1b 3e 65 54 0d be 7a 57 0f bd
       0.024388205 0.15176481 -0.13801725 -0.034995534
000010 ac 92 9e bb ab ae 06 be ae 1e 1e be 39 a1 ad 3d
       -0.004839262 -0.13152568 -0.15441391 0.084780164
000020 9c 37 1b bb b9 4e e7 3c b6 01 99 be d0 89 f9 3d
       -0.0023684269 0.02823578 -0.29884118 0.12184489
000030 ee 2d 37 be 67 08 25 3e 63 b8 ac 3d b0 5d 2a bd
       -0.17888615 0.16116486 0.084336065 -0.041593254
000040 d5 1b 17 be a1 4c 64 3d f1 b1 36 be a5 41 f1 3d
       -0.14756711 0.05573714 -0.17841317 0.11780099
000050 a8 71 e6 bd f3 ca 38 3d c4 59 04 3e 7b 4a 9f 3c
       -0.11252147 0.045115422 0.12924868 0.019444695
000060 1c 84 77 be 5c 00 45 be 44 6f f2 bd a8 17 81 bc
       -0.2417149 -0.19238418 -0.118376285 -0.01575835
000070 4c b8 06 3d a9 06 86 bc ea 32 67 be d5 80 00 be
       0.032890603 -0.016360598 -0.22578016 -0.12549146
000080 b5 2f 0d 3e bb 37 a2 3d ef b6 8b 3d 5a 70 0c 3e
       0.1378773 0.07920786 0.06822001 0.13714734
000090 4a d4 a8 3d 01 a8 b1 be c8 29 23 be 71 96 a8 bb
       0.08243616 -0.3469849 -0.15933907 -0.005144887
0000a0 37 77 bc 3d ad 61 57 be 49 42 d3 3d 3a 72 01 bd
       0.09202426 -0.21033354 0.10315377 -0.031603076
0000b0 2c 15 9f bd 3d 53 1b be ae d6 81 3d ed 32 89 bd
       -0.0776771 -0.15168472 0.06339775 -0.066991664
0000c0 9e 78 af be 27 e8 b1 be 2d 2b a5 3b a9 03 35 3e
       -0.3427171 -0.3474743 0.0050405473 0.17677177
0000d0 d9 64 54 3d bb 88 9f bd 18 a3 b0 bd bd e3 ad 3d
       0.05185399 -0.07789751 -0.08624858 0.08490703
0000e0 5e 15 ef 3d 90 53 e3 3d 6e 88 01 bd ac 31 ff bd
       0.11673997 0.11099923 -0.03162425 -0.12460646
0000f0 c8 69 85 bd 22 6c 11 3e be 4a f2 bd 6d d1 1f be
       -0.06514317 0.14201406 -0.11830662 -0.15607233
000100 07 b3 91 be 98 98 46 be 3a 65 75 bd 4a e5 1e be
       -0.284569 -0.19394147 -0.05991099 -0.15517154
000110 d2 ac 44 be e1 f1 aa bd 29 e6 e6 3d fb 10 25 be
       -0.1920655 -0.08346916 0.11274368 -0.16119759
000120 63 53 c1 bd 22 88 c5 bd 62 7c ae bd 22 d8 35 bd
       -0.09439733 -0.09645106 -0.08519818 -0.044395573
000130 3a cd 4e 3c a8 d5 38 be 04 00 2f be be 93 4e be
       0.012622172 -0.18050253 -0.1708985 -0.20173547
000140 59 9d bb bd 22 63 00 bd 3c c0 0d be 73 1e e2 bd
       -0.09160871 -0.03134454 -0.13842863 -0.11040964
000150 d7 a5 b8 bd 14 7d 35 3e e0 97 ea bd 81 86 93 bd
       -0.090160064 0.17723495 -0.11454749 -0.07203389
000160 83 bf 89 3d c2 3b 01 3c ee 52 d0 bd 8c c7 8c be
       0.06725981 0.0078877825 -0.101720676 -0.27495992
000170 c2 c6 ae be 27 9c 91 bd 77 24 21 be 96 4c 9b 3d
       -0.34136015 -0.07109862 -0.15736566 0.07582967
000180 cd 0a 15 bd a2 27 13 3d 10 56 30 be b2 53 33 be
       -0.036387254 0.03592647 -0.1722033 -0.17512396
000190 5c 83 e4 bc 55 b2 cf bc 7f 70 5d bd f2 4d f6 3d
       -0.027894668 -0.02535359 -0.054062363 0.12026586
0001a0 0e c4 ca 3d 8f 86 a4 bc 7d 4e fc bd 17 34 38 be
       0.09900676 -0.020083694 -0.12319658 -0.1798862
0001b0 bd 73 39 be 15 46 5a bd bf bd b9 3d f3 6a cf bd
       -0.18110557 -0.05328949 0.09069394 -0.10127821
0001c0 2f 75 8c bd b8 53 4c bd bc 82 3a be 5a c5 20 bd
       -0.068582885 -0.049884528 -0.18213934 -0.03925071
0001d0 76 7e 18 3d c3 b9 9b 3d 0b e4 67 be f6 7a 7e bd
       0.037229978 0.076037906 -0.22645585 -0.062128983
0001e0 28 b5 e9 3d 27 31 06 3e a1 06 e1 bd 4b ab 8b be
       0.11411506 0.13104688 -0.109875925 -0.27279124
0001f0 b3 f3 32 bc d4 38 e4 bd b9 b9 09 be d9 bc 06 3d
       -0.01092236 -0.111436516 -0.13449754 0.032894943
000200 50 8e d0 bd 29 45 ac bc 23 93 dd bd 0d 2c 88 bd
       -0.10183394 -0.021029072 -0.1081908 -0.06649027
000210 b9 9a 91 be c2 50 c2 bd 72 d9 1b 3e 7c a8 d9 3d
       -0.28438357 -0.094880596 0.15219668 0.10627839
000220 17 f0 13 3e 27 84 34 3d a6 11 f9 bd 26 20 e0 bc
       0.14447056 0.044071343 -0.12161569 -0.02735908
000230 9f 7d 40 bc bc 21 d4 3d 6f 15 06 be f5 51 7a 3e
       -0.0117487 0.10357997 -0.13094114 0.24445327
000240 97 fa 11 3e 9c 77 1c 3e e6 f6 8d 3d 26 04 2e ba
       0.14255749 0.15280002 0.06931858 -0.00066381914
000250 cc 4d a2 3d 5c c3 99 bd 20 8e 5f bd 3a ba 75 be
       0.07924995 -0.07507965 -0.0545789 -0.23996821
000260 29 96 2f be 41 c0 49 3e 22 af 3c 3e dd 2e 4e 3c
       -0.17147125 0.19702245 0.18426183 0.012584415
000270 c7 01 05 be 7a e3 15 bd 70 46 b7 3d df cd 86 3d
       -0.12988959 -0.03659389 0.08948982 0.065822355
000280 d3 9c 23 bd d6 23 15 3e 3f 26 39 bd 70 72 2e be
       -0.03994448 0.14564452 -0.04520249 -0.17035842
000290 3e 90 12 3e 8e e0 ff 3c 14 ff a6 bd 15 0b be bd
       0.14312837 0.031235006 -0.08154121 -0.092794575
0002a0 be 04 e9 bd 91 44 f6 bc 52 eb ca bd 67 b5 0f 3e
       -0.113778576 -0.030061992 -0.09908165 0.14034043
0002b0 61 85 8d 3d c5 54 9d 3e b3 fa b9 3c e5 dc 97 bb
       0.06910206 0.30728737 0.02270255 -0.004634487
0002c0 b4 6e 16 3e 34 a5 14 3e 2b 5a 2d 3e ea a5 f7 3d
       0.14690667 0.14516145 0.16928928 0.120921925
0002d0 7d 88 db bd d8 92 46 bc bb 36 09 be a5 eb 94 ba
       -0.107193924 -0.012119971 -0.13399784 -0.0011361731
0002e0 8f 3b af 3d 2b 7a d1 bd 3f 39 d9 3c 55 c3 5b 3e
       0.08556282 -0.1022838 0.026516555 0.21461232
0002f0 aa 2b de bc a5 46 26 be e3 f4 37 3e 31 ab 12 3e
       -0.02712043 -0.16237886 0.1796451 0.14323117
000300 ad 18 09 3e c7 e4 92 bd d4 3a c9 3d c7 8e f2 bc
       0.1338832 -0.07172542 0.09825674 -0.029609097
000310 5d 4c 17 3e 77 4b 1d be e4 33 bc bd b4 47 3c 3e
       0.14775224 -0.15360819 -0.09189585 0.18386728
000320 3a a2 10 be 28 c3 fa bb 27 71 8a bd cb 82 21 3e
       -0.14124385 -0.007652659 -0.06759863 0.1577255
000330 00 12 d4 bd 57 29 f4 bd 76 66 eb bd 51 a6 2b be
       -0.10354996 -0.119219474 -0.11494152 -0.16762663
000340 e8 bd 9d 3c 0f 23 2e 3d 23 09 55 bd 8f 62 7a 3d
       0.019255593 0.042513903 -0.052010667 0.06112915
000350 b3 b1 1f bd 6e bb 20 3d b9 3a ac bc 38 3e 9b 3d
       -0.038987827 0.039241247 -0.021024095 0.07580227
000360 d8 04 9b bd da 08 18 3b c1 a0 83 3d 68 64 39 3e
       -0.07569283 0.0023198635 0.06427146 0.18104708
000370 e0 09 c1 bd 41 5c 4e bd 50 14 76 3e 2a 45 d4 3d
       -0.09425712 -0.05038095 0.24031186 0.103647545
000380 f9 fc a4 bd 49 92 65 bd 33 69 a4 bd 05 35 12 3d
       -0.08056063 -0.05604771 -0.08027878 0.035695095
000390 62 b3 1f 3e 57 f9 4f 3e ce 7b b2 bd 68 34 4f 3e
       0.15595773 0.2030996 -0.0871502 0.20234835
0003a0 76 59 98 bd 41 68 0a 3e 13 e0 de 3d 48 af d4 bd
       -0.07438938 0.13516332 0.108825825 -0.10384995
0003b0 1a 15 f9 bd de cd bc 3d 4e 6a 4b be fa be 71 3d
       -0.12162228 0.092189535 -0.19864771 0.05902002
0003c0 87 96 8e bd 40 52 61 3d 9b 81 78 3d 3f 7a 31 3e
       -0.069623046 0.05501008 0.060670476 0.1733179
0003d0 f3 8d 15 3d 24 75 12 bd 48 19 25 3e f8 b0 88 bc
       0.036512326 -0.035756245 0.16122925 -0.016685948
0003e0 1c c2 b0 3c e2 f5 e3 bd cd eb ab bd ed 9a 87 bd
       0.021576934 -0.11130883 -0.08394585 -0.066213466
0003f0 eb b5 97 bd 59 51 62 bd d3 2e 2d 3c 39 ba ce 3d
       -0.07407745 -0.05525336 0.010570246 0.10094113

sequential/y_pred/MatMul f4 [2, 32]
000000 90 27 69 3e 67 00 a2 be 67 59 08 3e 71 72 73 3e
       0.22768998 -0.31640932 0.13315354 0.23774125
000010 e0 9a 9d 3e ae cc 80 be 6e 8d 59 be 4a 95 af be
       0.30782223 -0.25156158 -0.21245357 -0.34293586
000020 eb ff c6 bd 3e ce 63 3e 36 42 9e be 19 e4 91 be
       -0.09716781 0.22246644 -0.3090989 -0.28494337
000030 2e d6 94 be 03 72 5b 3e ff 25 21 bd f2 8c 03 3e
       -0.29069656 0.21430211 -0.039342877 0.12846735
000040 f9 77 8e 3e 52 f1 2e 3e f0 a4 27 3e 40 db 90 be
       0.27825907 0.17084244 0.16371512 -0.28292274
000050 46 50 5f 3e b0 9f bd 3d aa 31 97 3c cb c5 41 3e
       0.21807966 0.092589736 0.018456299 0.18923108
000060 1c 6f 3d be 26 b2 88 bd 70 cb 9b 3e 1a d4 81 3d
       -0.18499416 -0.06674604 0.30428648 0.06339283
000070 a1 12 e7 bc 4d 75 58 3e 10 d6 86 be 8b 76 a3 3e
       -0.028207125 0.21138497 -0.26335192 0.3192638
000080 4e 52 7b 3e 84 9d d6 3c c6 77 fc 3c b0 c2 23 3d
       0.24543115 0.026198156 0.030818831 0.03998059
000090 7a 6b 5e be 06 fa 5c bc 19 5a a5 be 9a b4 2f 3e
       -0.21720687 -0.013487345 -0.32295302 0.17158738
0000a0 fb a1 3b be 56 61 43 3e c1 1e b6 be 56 1a 69 be
       -0.1832351 0.190801 -0.35570338 -0.22763953
0000b0 88 fa a7 bd bb 19 ee 3e e1 58 88 3d 29 9c fc bc
       -0.08202082 0.46504006 0.06657577 -0.030836182
0000c0 10 31 91 bc be cf 92 be bb 93 a2 3d 44 ad b6 be
       -0.01772359 -0.2867412 0.079383336 -0.35679066
0000d0 bd 72 95 3e 9c ee 55 bc 41 e3 36 3d dc ae 1c 3e
       0.291891 -0.013057377 0.04465032 0.15301079
0000e0 7a 1d 84 3e 82 19 9c be 37 35 37 bc 14 67 74 be
       0.2580374 -0.3048821 -0.011182121 -0.23867446
0000f0 f1 23 32 3e 09 f5 95 3e b7 c3 cb 3d 7d 36 d2 3e
       0.17396523 0.2928851 0.09949439 0.41057196
